PAPER_IMPORTANT/trained_model_theta0.01_loss10_epoch9000_1.3507456893012637.pth (torch, 43220 bytes, 14 tensors)

fc1.weight f4 [8, 3]
000000 cd af d0 3f 81 a2 ef 40 5f ef c4 3e 1d d4 05 bf
       1.630365 7.488587 0.38463876 -0.52276784
000010 5e 21 86 3e cb f8 0d 3e a1 ae 01 bf 74 0f b3 3e
       0.26197332 0.13864438 -0.5065709 0.34972727
000020 e4 ea 30 3d 82 db 23 bf 27 15 b5 3f 12 43 53 c0
       0.04319276 -0.6400682 1.414708 -3.3009686
000030 52 29 08 bf e1 eb 46 3d c8 be ff be b9 ee 29 3e
       -0.5318805 0.048564795 -0.49950242 0.16594972
000040 b0 62 5b be b6 36 97 40 52 18 30 c0 2e ee 82 3e
       -0.21424365 4.7254286 -2.7514844 0.25572342
000050 ce 83 27 3f b1 a6 ca 3e 47 a9 06 bf b5 a9 bf be
       0.65435493 0.395803 -0.52602047 -0.37434164

fc1.bias f4 [8]
000000 9a bb 15 40 fa 53 0b bf 64 b8 e1 bd 55 bd 81 3c
       2.3395753 -0.54425013 -0.11021498 0.01583735
000010 7e e2 3b be 17 49 b0 3d 31 8d 86 3e 92 26 b6 be
       -0.18348119 0.08607691 0.26279595 -0.35576302

fc2.weight f4 [32, 8]
000000 41 8d 5c bf 62 5f a6 be ee ed 05 3e 39 ba b6 bd
       -0.86153036 -0.32494646 0.13079044 -0.08922238
000010 db 42 67 3e 5a e8 a6 3e b3 a7 2c 40 da 07 75 be
       0.22584097 0.32599145 2.6977355 -0.23928776
000020 3d 95 9b bf c4 7d 61 bd cc 16 b2 3c de 0f ba 3f
       -1.2154919 -0.05505158 0.021739386 1.4536092
000030 fa d2 1f 3e c3 e0 7d bf 43 56 de 3e e9 fb 5e be
       0.15607825 -0.99171084 0.43425187 -0.21775784
000040 8c d4 e2 3d 2d ba 89 3d 72 2b 2a 3e 23 7c 2a be
       0.11075696 0.06724963 0.16618136 -0.16648917
000050 ef 05 bb 3c d9 2e c1 3d 87 87 8f be 3d 15 45 3e
       0.022829978 0.094327636 -0.28033087 0.19246383
000060 c5 54 b6 3d c7 f8 c0 3d 1e f4 a6 bd b0 8f da bd
       0.08902887 0.094224505 -0.081520304 -0.106719375
000070 cb 46 0e 3e cf 41 27 3e bf 8c ae be 0a 03 52 be
       0.13894193 0.16333698 -0.34091756 -0.20508972
000080 10 65 00 bf c5 ca 01 bd 75 45 c9 3d 9d 84 48 3f
       -0.5015421 -0.031687517 0.09827701 0.7832735
000090 f6 96 88 bc 9e 06 1d 40 99 a6 5a bd 89 6b 4e be
       -0.016673546 2.453529 -0.053381536 -0.20158209
0000a0 f7 3e 4e be 80 7b 1e 3e 90 89 af 3d 57 83 3c 3e
       -0.20141207 0.15476799 0.0857116 0.18409477
0000b0 b4 fe 92 be 9f 01 d1 bc a0 b9 16 3d 06 8f 78 3e
       -0.28709948 -0.025513468 0.03679812 0.24273309
0000c0 b3 7b 3b be b6 dc 0c be 5d 0f a1 be 52 d1 8e 3e
       -0.18308906 -0.1375607 -0.31457034 0.27894074
0000d0 4c 0d a7 be 1c f7 68 be b9 01 d7 bc 11 75 ad bd
       -0.32627332 -0.22750515 -0.026245939 -0.08469594
0000e0 64 72 a5 be 67 c1 81 bb 8a 6d 85 3e 9e 99 65 3f
       -0.32313836 -0.003959823 0.26060134 0.89687526
0000f0 63 3a 03 3e 88 d5 c7 3f 74 9f 0d bf 34 15 91 be
       0.12815242 1.561204 -0.5532143 -0.2833649
000100 f4 7f cb 3e ae 8f 90 be d0 43 57 3e a7 ec e4 be
       0.39746058 -0.2823462 0.21021962 -0.447118
000110 99 bb ac be 25 19 28 be 31 c3 4e 40 ad 5a bb bd
       -0.33736876 -0.16415842 3.2306635 -0.091481544
000120 66 aa 95 be 21 21 0a 3e 20 ab ef bc 33 c9 bb be
       -0.29231566 0.134892 -0.029256403 -0.3667694
000130 13 fb c4 3d 3e 92 13 be b3 2b b3 be 23 56 08 be
       0.09618201 -0.14411256 -0.34994277 -0.13314109
000140 c9 83 16 3f 1e f2 af be 37 0b d4 bd 21 66 85 3f
       0.5879484 -0.34364408 -0.103537016 1.0421792
000150 5b eb 63 be b0 68 0d c0 80 dc f3 3f 7f cb b3 3e
       -0.2225775 -2.2095146 1.9051666 0.35116193
000160 20 99 cb bd 72 46 0d 3e 85 11 88 be 91 15 47 bc
       -0.09941316 0.13796404 -0.26575866 -0.012151138
000170 60 1c a5 3e f3 c2 c7 be 17 64 40 bd a0 99 5c 3e
       0.3224821 -0.39015922 -0.046970453 0.21542978
000180 fd c3 8d 3d c4 59 96 3d 06 d2 3f 3e e6 fd b2 be
       0.069221474 0.0734134 0.18732461 -0.34959334
000190 b5 5a 09 be eb eb 44 be 8a 35 fd bd db 1f 47 be
       -0.13413508 -0.1923062 -0.123637274 -0.19445746
0001a0 de 69 4d bc c4 26 ae be f1 3c 70 be 19 d1 8c bf
       -0.012537448 -0.3401395 -0.23460747 -1.1001312
0001b0 fb d2 64 bd e0 41 6b 40 7e 0c a1 be a3 65 a2 3c
       -0.05586527 3.6758957 -0.31454843 0.019823855
0001c0 d7 3d 73 3e 38 2f db bd e6 5a 76 be fc f9 87 bf
       0.23754059 -0.10702366 -0.24058113 -1.0623164
0001d0 ed 38 86 bd 51 9a 65 3f 54 52 91 3e 7b 15 a8 3c
       -0.065538265 0.89688593 0.28383124 0.020518055
0001e0 44 67 41 be 16 ee 78 3e 37 db 2a 3e 44 a0 f9 3d
       -0.18887049 0.24309573 0.16685186 0.12188771
0001f0 fa 7e 4f be 69 c0 64 3d 71 d6 aa 3d 93 9b 5d be
       -0.20263281 0.05584756 0.08341683 -0.21641378
000200 8a 08 ad be aa e3 c6 bc d6 6d ed 3d ea 6a a0 bf
       -0.33795577 -0.02427848 0.11593215 -1.2532628
000210 38 43 48 3e 86 87 e7 3f 69 5f d1 be ea f5 90 bd
       0.19556892 1.8088233 -0.40893105 -0.070781544
000220 21 58 ef bc 7f ed 42 bd 6d 1d b6 3d 39 5d 79 be
       -0.029216828 -0.047589775 0.08892331 -0.24351968
000230 43 6c 98 be 19 e3 75 be a4 1e 71 be 13 ea 7a be
       -0.29770097 -0.24012412 -0.23546845 -0.24503355
000240 ed c6 9f be 04 b4 85 be 32 66 59 3e e7 43 0b 3e
       -0.31206456 -0.26113904 0.2123039 0.13600121
000250 25 39 a9 be c2 5d aa 3e cb 4b 60 bf bb 98 a9 3d
       -0.3305141 0.33274657 -0.8761565 0.08281084
000260 fe 6b 30 3e ad 8d 2a bd 15 79 d4 3d f5 99 8a 3f
       0.17228696 -0.04163902 0.10374657 1.0828234
000270 2d 15 75 3e c0 fe 86 c0 28 61 03 bf 27 a4 10 be
       0.23933859 -4.2185974 -0.51320124 -0.14125119
000280 40 58 94 bd e9 15 82 be 7e 65 02 3d a4 5b 86 3d
       -0.07243395 -0.2540734 0.03183507 0.06560448
000290 7d eb a0 3d 53 00 b4 3e b5 78 fa bc 87 d1 5a be
       0.07857416 0.35156497 -0.030575136 -0.21368991
0002a0 44 6b fe be 07 fa 83 be c0 6e 57 be df 02 17 bf
       -0.49691212 -0.25776693 -0.21038342 -0.58988756
0002b0 c0 4f ac 3d 1a 5a 85 bf aa ac 32 be 89 ee 66 be
       0.084136486 -1.0418122 -0.17448679 -0.22551931
0002c0 b8 ea 4a bd 11 7e ab be 4c b9 b7 bd e0 0b 06 bf
       -0.04954025 -0.3349462 -0.089708894 -0.5236187
0002d0 32 4f 5f 3e 0a d6 49 be 36 8f bf bf a0 fc 92 3e
       0.21807554 -0.19710556 -1.496558 0.28708363
0002e0 da 63 60 be fa f4 70 3e 4a 13 0f 3e 65 bc 90 39
       -0.2191309 0.23530951 0.13972202 0.00027606185
0002f0 d0 92 b2 3e ec a0 07 be a8 3d 47 be ca 5b 33 3e
       0.34877634 -0.1324498 -0.19457114 0.17515483
000300 86 57 38 3f ed b4 f9 3c be bc 31 be 00 df 99 3f
       0.7200855 0.03048178 -0.17357156 1.2021179
000310 55 37 04 be 43 a5 aa bf c7 6f 88 c0 43 83 30 3d
       -0.12911732 -1.3331684 -4.2636447 0.04309393
000320 b3 db 22 3e 41 ea 3b 3e 3b 96 8c 3e 1c b2 57 3c
       0.15904121 0.1835108 0.27458367 0.013165023
000330 67 cf 90 be af 48 ff 3c b9 19 89 be 66 d2 00 be
       -0.28283235 0.031162588 -0.26777437 -0.1258026
000340 5b 78 08 bf a2 b0 a1 be ef 61 89 be 78 63 52 3d
       -0.5330865 -0.31580073 -0.2683253 0.051364392
000350 95 32 3b 3e 8c 85 bb 3f 77 ea 23 be 90 48 51 3e
       0.18281014 1.465013 -0.1600741 0.20437837
000360 ed 18 8c 3f c0 85 38 3e 84 89 1f 3d da 63 25 3e
       1.0945107 0.18019772 0.038949504 0.16151372
000370 fa bf 51 be 4e 7f 8c c0 34 38 95 3e 35 c6 90 bc
       -0.2048339 -4.39054 0.29144442 -0.017672637
000380 af 0c 4c be 35 91 ad 3e a9 34 28 be 90 8c 81 be
       -0.19926713 0.33899847 -0.16426338 -0.25302553
000390 c0 be 3e 3e 7e c8 a3 bd 2f 61 a6 be c3 8f 2d ba
       0.18627453 -0.07997225 -0.3249602 -0.00066208484
0003a0 36 5a c3 3f d9 a5 d1 bc 33 87 1c be a9 8f 99 c0
       1.5261905 -0.025591778 -0.1528595 -4.7987866
0003b0 0b 01 30 3e 0d 22 08 c0 f3 52 28 c1 39 6f 88 3e
       0.17187898 -2.1270783 -10.520251 0.26647356
0003c0 c2 72 aa bd ac 89 53 be c8 c9 aa be 81 88 f8 bd
       -0.083226696 -0.20657986 -0.33357072 -0.12135411
0003d0 91 eb 09 3d dd c6 cf be 08 fb f8 bd 92 b4 5c 3e
       0.03367192 -0.40581408 -0.121572554 0.21553257
0003e0 85 18 2b bf c4 ce 7c 3e fc 20 32 be 8c 2a 67 3d
       -0.6683429 0.2468825 -0.17395395 0.05643706
0003f0 76 0c b2 be 12 d5 e1 3e e5 93 ae be 11 c1 c1 bb
       -0.34775132 0.44107872 -0.3409721 -0.005912908

fc2.bias f4 [32]
000000 1c be c8 3f 38 27 03 40 8a 7d ef be 64 cd 98 be
       1.5683017 2.0492687 -0.46775466 -0.298442
000010 c0 75 85 3f 13 67 e5 bd 7a 38 96 be 51 d7 77 3f
       1.042656 -0.112013005 -0.29339963 0.9681292
000020 77 1d 07 bf d2 37 3a 3e f6 28 a2 bf 00 a9 b2 3c
       -0.52779335 0.18185356 -1.266875 0.021809101
000030 18 fe 8d be 2c b9 8c bd ca a4 15 bf dc 87 4e bd
       -0.2773292 -0.06871256 -0.58454573 -0.050422534
000040 87 cc 38 3f 33 79 a6 be 47 f0 a3 3f bc b4 00 3e
       0.72187084 -0.32514343 1.2807702 0.12568945
000050 d1 5a 7d be 94 f3 c4 3f cb b5 85 3f cb 5d 85 be
       -0.24741675 1.5386834 1.0446104 -0.2604812
000060 16 cd 15 be 9e ff 00 bf e3 03 a9 3f b7 6d fd bf
       -0.14629015 -0.5039004 1.3204311 -1.9799107
000070 7c 92 7a be 0e f5 9f 3f 5f a9 93 3d c8 85 de 3f
       -0.24469942 1.249666 0.07210039 1.7384577

fc2_1.weight f4 [64, 32]
000000 40 d5 ae bc a4 7a c3 3d 12 ce aa bc b2 b7 e3 bc
       -0.02134192 0.09544876 -0.020850215 -0.027797554
000010 f5 96 f2 bd f5 9c 80 3d 83 b6 15 3e 27 45 8d 3c
       -0.11845199 0.06279937 0.14620404 0.017244888
000020 96 6a aa 3c 37 cd 39 bd f3 44 90 bd 9c 93 8b 3d
       0.020802777 -0.045361724 -0.07044401 0.06815264
000030 03 8d 0d bd c2 5c a3 bd e0 3f 2e 3d 7e 7d fc bd
       -0.034558307 -0.079766765 0.042541385 -0.12328623
000040 d9 0c c2 3d 2b 88 5a bc 23 60 1f be 0f 5c 26 3e
       0.09475107 -0.013338129 -0.15564017 0.16246055
000050 d4 06 27 be eb 5b 11 be b1 47 12 be 32 36 84 3c
       -0.16311198 -0.1419522 -0.1428516 0.016139124
000060 79 06 fd bd f6 80 84 bd 52 93 c6 b9 2d 44 bc bc
       -0.1235475 -0.0646991 -0.00037875265 -0.022981727
000070 b7 12 0a be 63 f0 84 3d c5 1c dd 3d 4e 2f 12 be
       -0.13483702 0.06491163 0.10796503 -0.14275858
000080 be be b0 bf da fb 1c 40 bb 95 48 ba 92 6d 13 3e
       -1.380821 2.4528718 -0.0007651706 0.14397267
000090 d3 e7 84 3f 62 1f 20 3e ef 3f f7 3d 5c 77 b7 be
       1.0383247 0.15636972 0.12072741 -0.3583325
0000a0 b0 ad 87 3f b2 b0 fc 3c 26 89 ff 3e 30 6d b7 be
       1.059988 0.030845974 0.49909323 -0.3582549
0000b0 56 12 25 bd 61 27 ec 3e b7 5b d5 b8 95 75 7e be
       -0.04030069 0.46123794 -0.00010173715 -0.24849541
0000c0 4d c9 b2 3f be 31 26 be bb 1c 80 bf 91 ce 3d c0
       1.3967682 -0.16229913 -1.0008768 -2.9657328
0000d0 8d cd 73 bd 70 2f 8b 3d 88 24 9d bf 62 20 a6 bd
       -0.0595222 0.06796157 -1.2276773 -0.08111645
0000e0 9c 51 cb 3e 83 26 93 bd c1 f9 39 3f ab da 66 3f
       0.397107 -0.0718508 0.7264672 0.9017741
0000f0 ef b5 02 be fb 2f 56 bd 17 9d 0a 3e 64 e1 e3 be
       -0.12764715 -0.05229185 0.13536488 -0.44507897
000100 91 1f 97 bd 8f e9 7e 3d e3 d2 02 3e d0 52 0e 3e
       -0.07379068 0.062234458 0.1277576 0.13898778
000110 34 63 02 3e 3c 4f 09 3e 8d b6 26 be 18 9e 0a bd
       0.12733155 0.13409132 -0.16280575 -0.033842176
000120 0a 7c 29 be 3d 26 09 bc e8 b9 05 3b 5e 4e ae bd
       -0.16551223 -0.008370933 0.0020404998 -0.08511041
000130 14 c1 36 bd 89 fa 40 be 92 dd c3 bd af 46 86 bc
       -0.044617727 -0.18845572 -0.095637456 -0.016391126
000140 f5 cc 68 be ac 16 0f 3e f8 ae 06 bd fe 40 09 3d
       -0.22734435 0.13973492 -0.032881707 0.033509247
000150 9a 8a 00 3e e7 e6 91 bd d5 2c c6 bc 14 40 1b be
       0.12552872 -0.07124119 -0.0241913 -0.15161163
000160 4f f9 23 3c ee 2c 01 be db 73 69 bb f2 4f ae 3b
       0.01000817 -0.12614796 -0.0035622034 0.005319589
000170 10 d9 30 bd 62 75 97 3c 4c 73 f7 bd 59 dd 2b be
       -0.043175757 0.01848859 -0.12082538 -0.16783656
000180 2f dc 19 be 6d 7b fa bd b3 b6 02 3e 50 e3 e5 3d
       -0.150254 -0.12230573 0.12765007 0.11224997
000190 4e 2e 19 be 1f 20 ed 3d aa f9 59 3d 59 8a bc 3c
       -0.1495907 0.11578392 0.053216614 0.023015188
0001a0 ee a6 be bc 41 3f e9 3d 74 3f 15 3e 37 bf 36 3e
       -0.023272958 0.11389018 0.14574987 0.1784638
0001b0 cd e3 d6 bd d5 0c 1b bd 7e d0 23 be 1b 22 d4 bd
       -0.10492668 -0.037854034 -0.15997502 -0.103580676
0001c0 67 35 8a bd ef 45 19 be d4 57 7b 3d 51 07 41 be
       -0.06748467 -0.14968084 0.061363056 -0.18850447
0001d0 ce 9b c2 bd f5 b2 89 bd dd 91 50 be b8 3a 6a bd
       -0.09502374 -0.067235865 -0.20368142 -0.057184905
0001e0 de 4e df bd e7 19 9b bd 25 1f 07 be d2 96 f5 bd
       -0.109037146 -0.075733 -0.13195474 -0.11991657
0001f0 13 08 2f bd d2 80 27 3d 7e 3e 05 be 75 92 95 3d
       -0.04273231 0.040894337 -0.1301212 0.07303325
000200 be 6c 7e bf e0 f6 b8 bf d2 6e e3 3d 3e 2c fc 3c
       -0.9938468 -1.445034 0.11105122 0.030782815
000210 0e 33 3f 3f c8 20 89 bd 6e 03 31 be 25 df 75 3f
       0.7468728 -0.06695706 -0.17286465 0.96043617
000220 53 26 66 be 0f c6 8a bd 46 33 d0 bc 8c 04 8e 3c
       -0.22475557 -0.06776058 -0.025415074 0.017336152
000230 af a2 c9 3d ab 02 95 bf 94 07 3c bd 84 0f 51 3e
       0.098454826 -1.1641439 -0.045905665 0.20416075
000240 c2 b5 13 3f b5 72 f2 3d d7 8e aa 3f dd ea 09 bf
       0.57699215 0.11838285 1.3324841 -0.53874
000250 77 59 64 3d a8 e4 b8 3f a6 c7 94 3f 14 33 23 be
       0.055749383 1.444478 1.1623428 -0.15937454
000260 91 20 cd bf 45 2f 90 bc 90 d6 d3 3f 44 5a 69 bf
       -1.6025563 -0.017600665 1.6549854 -0.9115336
000270 2b e7 1e 3e 21 c8 cc bd 17 c6 16 3d 64 44 cc bf
       0.15517871 -0.09999109 0.036810007 -1.5958371
000280 d9 90 89 bf f3 9b 44 40 83 09 db bd d1 bb 50 bc
       -1.0747329 3.0720184 -0.106951736 -0.012740091
000290 af dc 33 3f e1 0e 07 3e be a7 eb bd a7 fe f8 bd
       0.7025861 0.1318927 -0.11506604 -0.12157946
0002a0 13 44 05 c0 76 90 c7 3d 8a 51 6c be 60 96 5e be
       -2.08228 0.097443506 -0.2307798 -0.21737051
0002b0 3b 45 93 bd 21 e1 9a 3e b9 18 38 3e 2f 95 02 be
       -0.07190939 0.30249885 0.17978181 -0.12752222
0002c0 4f 1f a0 3e 1f e4 16 3e c2 a1 ef 3d 96 8e 8a 3f
       0.31273887 0.14735459 0.11700775 1.0824764
0002d0 19 53 d8 3d 82 f7 83 3e a9 77 25 3d 58 d5 1c be
       0.105627246 0.2577477 0.04039732 -0.15315759
0002e0 4b 12 c2 3f 1e f9 f0 bc 0d 73 52 3e a5 73 cc bd
       1.5161833 -0.029415663 0.20551701 -0.09982995
0002f0 80 ca ac 3d d5 a2 82 3f e2 86 fe 3d 56 d6 85 3f
       0.08437061 1.0205942 0.124280706 1.0456035
000300 53 13 34 3d 30 56 c1 bd a4 26 fe bd 1d 98 d9 bd
       0.04396374 -0.09440267 -0.12409714 -0.106247164
000310 0d 6c 6e bd 96 e7 a9 bd 39 03 9a bd c6 a7 04 be
       -0.058208514 -0.08296125 -0.07520146 -0.12954625
000320 2c d0 b0 bd 79 e2 d9 bd d4 07 96 3d 02 0b 63 be
       -0.08633456 -0.10638899 0.07325712 -0.22172168
000330 50 c6 14 3e 93 51 9c 3c 1e b1 26 be 6d c4 c7 bd
       0.14528775 0.019081866 -0.16278502 -0.09754262
000340 85 ea 35 be af 3a f5 bd d9 d4 10 be 24 2b 2d be
       -0.17765243 -0.11974084 -0.14143695 -0.16910988
000350 22 53 15 be f9 5d 6c be 49 35 a8 3d 74 6c 16 3e
       -0.14582494 -0.23082723 0.08213288 0.14689809
000360 73 ec d9 bd cf e8 eb bd d0 93 6e bb f7 b7 49 3d
       -0.10640802 -0.11519014 -0.003640402 0.04924771
000370 be 50 07 bd b8 1c 5c be b4 95 85 3d 60 06 34 be
       -0.033035986 -0.2149533 0.06522694 -0.17580557
000380 1b 91 a2 bf 32 ce df 3f 4e 6b b5 bc 19 21 32 bd
       -1.2700533 1.7484801 -0.022145893 -0.043488596
000390 9a 49 ce 3d 21 51 50 bd db c9 ea bd 69 84 90 bf
       0.10072632 -0.05085862 -0.11464282 -1.1290408
0003a0 1b e0 87 3e 87 c0 38 bd e4 c2 f1 3f f9 41 b1 3e
       0.26538166 -0.045105483 1.8887601 0.34620646
0003b0 55 2c b2 bd 5c d0 0a c0 e7 42 66 bd c1 54 85 3d
       -0.08699862 -2.1689672 -0.056216147 0.06510306
0003c0 4f a8 e0 3d 7a 64 d6 bd 6e 62 22 bf 37 5e 20 bf
       0.10969602 -0.10468383 -0.6343144 -0.6264376
0003d0 76 0f d8 3d 1f 41 5b 3f da 54 ed be 9c c2 10 3e
       0.10549824 0.8564624 -0.463538 0.14136738
0003e0 a0 a7 91 3d 0f 9b 38 be d4 ee 34 3f cd 22 c9 3f
       0.0711205 -0.180279 0.7067692 1.5713745
0003f0 e4 df 1f bd 55 c1 88 3e 34 df 3b be 67 49 33 3f
       -0.039031878 0.2671 -0.18346864 0.7003388

fc2_1.bias f4 [64]
000000 c5 67 fc bd b9 65 a8 bd 6b c1 e4 bd d7 97 3f be
       -0.1232448 -0.08222527 -0.11169704 -0.18710266
000010 60 13 96 3f 6b a5 95 bf e3 82 a5 bd a9 cf 4d be
       1.1724663 -1.1691107 -0.08081605 -0.20098747
000020 74 9c 7c be c3 a2 3e be 63 1b 2e 3e b4 4e cc bd
       -0.24669057 -0.18616776 0.17002635 -0.09975949
000030 73 7a 5e 3e 0f a0 7f 3f 6a ef 0a 3f 43 d5 b3 3c
       0.21726398 0.99853605 0.54271567 0.021952277
000040 40 0c 91 3a c1 6e b0 3f 28 0e ff 3f ef c3 b9 3f
       0.0011066273 1.37838 1.9926195 1.4512919
000050 0c be 0e be 4e 8e f2 bd ef b3 12 3e c9 7c 83 3f
       -0.13939685 -0.11843549 0.14326452 1.0272456
000060 59 b4 da bd 18 89 e4 3f 82 b8 3b be d4 c0 0c be
       -0.1067893 1.7854338 -0.18332103 -0.13745433
000070 7f 6c d8 3f 7f a2 03 3e 5f 0e 65 3c 3d 82 51 bd
       1.690811 0.12854956 0.013980477 -0.051149596
000080 b9 5a 02 be 48 fd 23 be c4 ca d7 bd d9 b7 34 bf
       -0.1272992 -0.16014588 -0.10536721 -0.7059303
000090 4d f7 bf bd ad 4a 68 be a8 9c ac 3f b1 61 c0 3f
       -0.09373341 -0.22684737 1.3485308 1.5029813
0000a0 fc 3d bc bb e8 bb c0 3f 1b da 72 3f 9c 21 96 3e
       -0.005744694 1.5057344 0.9486405 0.29322517
0000b0 f6 a7 50 be aa 1b f9 3e fc 00 a0 3f 23 84 83 be
       -0.20376572 0.48653919 1.25003 -0.2568675
0000c0 61 cf 85 bd c2 c7 bb bc 27 1b 47 bd 28 e2 a1 bd
       -0.06533695 -0.0229224 -0.04860988 -0.07904464
0000d0 34 0c ac 3d 4d 5a 29 3f 3a fd 91 3f 7a 3b 9d 3c
       0.08400765 0.66153413 1.1405404 0.0191934
0000e0 9c 3c da 3d 4b 9d a9 3f 80 b3 db bc 76 4f 18 3f
       0.106560916 1.3251127 -0.02681899 0.5949625
0000f0 c4 ac ee bd 9c 91 3a be 19 d4 04 c0 5f e3 f7 bd
       -0.11654046 -0.18219608 -2.0754454 -0.121039145

fc2_1_1.weight f4 [64, 64]
000000 40 0b 84 3b 28 30 c9 bd 7d ea fd bc 0f c8 33 3c
       0.0040296614 -0.09823638 -0.030995602 0.010972991
000010 55 f0 e7 3d 39 11 aa bf 9a 35 a5 3c c5 d3 87 3f
       0.113251366 -1.3286506 0.02016716 1.0611502
000020 ff f6 ad bf 2a 26 e3 3d 42 9b a0 3f b2 53 94 3c
       -1.3591002 0.110912636 1.2547381 0.018106315
000030 8e 47 42 bf f3 bb 25 c0 fa aa 05 3e b5 22 91 bf
       -0.75890434 -2.5895965 0.13053504 -1.1338717
000040 93 26 48 3d 27 21 3a bf 8a f5 b3 3f 67 6e 86 3f
       0.048864912 -0.72706836 1.4059308 1.0502442
000050 0f 13 93 3d 07 bd fc 3d e0 33 50 bc 22 de 90 3e
       0.071813695 0.123407416 -0.01270768 0.28294474
000060 60 38 2a 3d 5a b7 fb bf 30 4e 49 3c aa 24 f0 bd
       0.04155767 -1.966533 0.012286708 -0.11725743
000070 12 e4 7b bf 84 d4 30 3e 75 d6 6c 3d 18 9e f6 bd
       -0.9839488 0.17268568 0.05782171 -0.12041873
000080 3c a7 72 3d 9b e9 7d 3d 78 2c 49 bd 6e 41 64 3f
       0.05924152 0.06199036 -0.049114674 0.8916234
000090 48 a4 6f 3d 8a a0 09 bd bf c7 39 bf 7f 7f 0f bf
       0.05850628 -0.033600368 -0.72570413 -0.5605392
0000a0 94 ed 5e bd e7 62 56 3e 8d d3 c6 3e 01 46 8a be
       -0.05442579 0.20936166 0.38833275 -0.27006534
0000b0 28 f1 70 bd e4 ff c8 3e 0d 5e 4a bf 03 f7 66 3d
       -0.058823735 0.3925773 -0.7904976 0.056387912
0000c0 d6 6b c4 3d e0 0b b6 bb 80 52 ff bb 2d 59 d0 bd
       0.095908806 -0.005555615 -0.007791817 -0.10173259
0000d0 8b 83 2a 3d 0e 9d 05 bf 22 fc 69 bf ae ee a1 bd
       0.041629355 -0.5219277 -0.9140035 -0.07906853
0000e0 6c 32 0d bd 9e 5e 23 3f e4 1a 40 bc 8d 0b 78 3f
       -0.034471914 0.6381625 -0.011725161 0.96892625
0000f0 c4 89 83 3d b6 ef 85 3d e6 91 f6 3d 4a a0 ff bb
       0.06422761 0.06539862 0.12039547 -0.0078010904
000100 04 31 fb 3d 4e 93 9f 3e 42 bd a0 3d d6 9f 0f 3e
       0.12265208 0.31167072 0.07848598 0.14025816
000110 32 08 91 bf 27 54 1e 3d 9c c3 fd 3a fe 18 de be
       -1.1330626 0.038654473 0.0019360664 -0.43378443
000120 33 d8 11 3f 06 07 b9 3d c7 69 23 bf b0 91 4d bd
       0.5697052 0.09034543 -0.6383328 -0.050187767
000130 b6 87 12 40 21 e1 c6 bf 1c c2 86 bf af a8 bb 3f
       2.2895331 -1.5537454 -1.0527987 1.4660853
000140 32 79 5f 3d 4f 29 ac be 5f 57 b8 bf 15 4a f0 bf
       0.05455894 -0.33625266 -1.4401664 -1.8772608
000150 14 44 17 3d d8 79 d4 3e 50 d7 3a bd 82 c2 95 c0
       0.03693016 0.4149921 -0.045615494 -4.6799936
000160 f4 47 ee bd fb cd 7c 3e fc cc 9c bd 42 b1 8c bd
       -0.11634818 0.2468795 -0.07656285 -0.06869747
000170 8b 0a 7d 3f 46 e8 14 bf 4d 41 30 3b 10 ec fc bd
       0.9884421 -0.5816692 0.002689439 -0.12349713
000180 b0 e0 24 bd db d6 e4 3d 2f de d0 3d 8f 66 26 3f
       -0.04025334 0.11173793 0.10198628 0.6500024
000190 e8 8e 26 3d 9a ae a0 3d 1e 19 d8 be d1 8a 01 c0
       0.04066363 0.078458026 -0.42206663 -2.0240977
0001a0 1e c7 ec 3d 8d e5 45 bf 2e f9 0f c0 c5 26 2a be
       0.11561416 -0.7730339 -2.2495837 -0.16616352
0001b0 8a cb bc 3d ce 5d cf bf 36 e9 21 3e df 2e cf 3d
       0.092185095 -1.6200502 0.15811619 0.10116362
0001c0 80 be 1c bc ae e9 a3 3d e0 de 50 bd 30 86 69 3d
       -0.009566903 0.08003555 -0.0509938 0.057012737
0001d0 de bd 93 bc 68 13 9e 3e ba ce 14 3e 48 20 92 3c
       -0.018034872 0.3087418 0.14531985 0.017837659
0001e0 d2 29 96 bd c9 49 c6 3e 21 40 a0 3d 48 61 64 bf
       -0.07332195 0.3872817 0.078247316 -0.8921094
0001f0 62 cf cd 3d 47 37 aa 3d 21 9b 95 3f d0 2e da 3c
       0.10049321 0.083113246 1.1687967 0.02663365
000200 94 48 16 3d ec 1e bc bc 00 e0 08 bb a0 40 31 bd
       0.03669031 -0.022963963 -0.0020885468 -0.04327452
000210 20 76 95 3d 93 27 34 bd 80 fc b8 bd 93 29 b0 bd
       0.07297921 -0.043983053 -0.090325356 -0.0860168
000220 b2 bd 0f be 60 5b e7 3b 54 88 34 3d e0 4f 72 3c
       -0.14037207 0.0070604533 0.044075325 0.0147895515
000230 b4 f1 07 be ba ad a0 3d 1a 0b 50 bd be f7 8b 3d
       -0.13275796 0.07845636 -0.050791837 0.068343624
000240 40 5f 66 3b 29 d7 ab 3c 42 e9 8f bd e5 ef b7 3d
       0.0035151988 0.02097662 -0.07026912 0.08981303
000250 90 1a 60 bd da 2c 9b 3d 86 a0 bd 3d 4d d5 6d 3d
       -0.054712832 0.07576914 0.09259133 0.058064748
000260 e4 66 25 3d 29 29 ab bd 6c 27 fc 3d 38 1a a1 3c
       0.040381327 -0.0835746 0.123122066 0.019665822
000270 15 dc 1d bd 87 44 01 be 8e 46 ce bd 02 ab 80 bd
       -0.038539965 -0.12623797 -0.10072051 -0.06282617
000280 e2 f3 a0 3d b0 38 b0 bc e6 36 a5 3d 00 9b 7a 3d
       0.07859017 -0.021511406 0.08067112 0.061182976
000290 c4 ca 66 bd 40 f3 86 3c 8d 21 cd bd 17 91 00 be
       -0.056345716 0.016473413 -0.10016165 -0.12555347
0002a0 06 d2 d7 3d 9f 43 5f bc bc 8a 11 be bd 59 9b 3d
       0.10538106 -0.013626962 -0.14213079 0.075854756
0002b0 f0 48 92 bc 33 78 55 3c c7 85 96 3d ec 4a b6 3d
       -0.017857045 0.013029146 0.07349735 0.08901009
0002c0 18 c6 b9 3d f4 03 69 bd 66 42 8a bd 24 03 a9 3d
       0.090709865 -0.056888536 -0.06750946 0.08252552
0002d0 3a 41 dd bd f9 cd fb bc c1 5b 04 be 08 f9 fa 3d
       -0.108034566 -0.030737864 -0.12925626 0.1225453
0002e0 ae 45 84 bd db fa 0c be 9c 80 d5 3d d4 88 09 be
       -0.06458603 -0.13767569 0.10424921 -0.13431102
0002f0 c0 a7 47 bb 00 8d 91 3c 73 e1 00 be 96 65 9d bd
       -0.0030464977 0.01776743 -0.12586002 -0.076853916
000300 ca 18 f4 bd cf a1 2b be 16 10 e5 3d d6 39 ba 3d
       -0.11918791 -0.16760944 0.11184709 0.090930626
000310 90 e8 df bd 74 aa fe bc ac b8 cc 3d ee 43 f8 3b
       -0.1093303 -0.031087138 0.09996161 0.007576457
000320 f6 73 09 bd 40 cd 50 3b 47 da a9 3d 88 14 69 3d
       -0.033557855 0.003186062 0.08293586 0.056904346
000330 ec 55 00 be 14 30 0c 3d 7a 50 09 be e4 51 ac 3c
       -0.12532777 0.03422554 -0.13409606 0.021035142
000340 30 d4 57 3c 66 9d 08 be 8e bb 22 3d 8a 11 b9 bc
       0.013173148 -0.13341293 0.039729647 -0.022591371
000350 8c cc 73 bd 08 2f bc bc 50 55 29 3d cd c7 eb bd
       -0.059521243 -0.022971645 0.041341126 -0.11512718
000360 06 60 e3 bd f9 30 24 bd 30 2f 9b bd 10 2b 35 bd
       -0.111022994 -0.040085766 -0.0757736 -0.04423052
000370 98 25 c9 bd 0e 8e 85 bd 82 9c ce bd c4 a3 65 3d
       -0.098216236 -0.065212354 -0.10088445 0.056064382
000380 78 16 38 bd cc b5 85 bd ea ee f1 bd 90 0a ff bd
       -0.044943303 -0.065288156 -0.11813147 -0.124531865
000390 f4 90 5f bd de 38 aa 3d ac 6f b9 bd c5 d3 3e bc
       -0.054581597 0.08311628 -0.09054503 -0.0116471695
0003a0 88 db 7d bd 0f fc 63 bc bd 5a 55 3d f8 2c c8 bc
       -0.06197694 -0.013915076 0.052088488 -0.024435505
0003b0 60 cf 52 bd 04 f5 92 bd eb 1f e2 3b 60 6e 07 bd
       -0.0514673 -0.07175639 0.0069007776 -0.033064246
0003c0 d6 ab b2 bd 84 3e ee bd ae 80 9f bd f8 24 c1 bd
       -0.08724181 -0.11633018 -0.077882156 -0.09430879
0003d0 fc bb 56 3d 2f 77 19 be 16 cc e6 3b e4 d9 63 3d
       0.05242537 -0.14986871 0.007043372 0.05562772
0003e0 34 57 f8 3d 7c 1a 3d be 90 19 3b bd 5f 39 1a be
       0.12126008 -0.18467134 -0.045678675 -0.15060948
0003f0 40 a7 92 bd 78 b3 c3 3c e6 2b fa 3c 80 2a 7c 3d
       -0.07160807 0.023889288 0.03053851 0.06156397

fc2_1_1.bias f4 [64]
000000 95 e2 1a 40 b2 30 cd be 51 45 a4 3b 0f 22 88 3c
       2.4200795 -0.40076214 0.005013146 0.016617803
000010 f4 50 86 bd 23 b8 86 bf cb b0 19 be 40 f2 18 be
       -0.06558409 -1.0524944 -0.15008847 -0.14936161
000020 45 5d 91 bd 4a 73 65 bf d6 60 e7 bf 0b 81 82 3e
       -0.07097868 -0.8962904 -1.8076427 0.25489077
000030 09 1d f8 bd b1 3c 7c bd 02 96 5c 3f 54 e2 ee 3e
       -0.12114913 -0.061581317 0.86166394 0.4665705
000040 5a 32 6a 3d 42 37 a0 be 26 07 88 3e f5 f6 dd bd
       0.057176925 -0.31292158 0.26567954 -0.10838119
000050 cd 26 0b 3f 33 b9 9f 3f 51 77 45 bb 92 62 0c bd
       0.5435608 1.2478393 -0.0030130933 -0.03427369
000060 31 85 0f bf 99 1b e1 bd ec a4 4e bc 46 eb b3 bf
       -0.5606261 -0.10991592 -0.012612563 -1.4056175
000070 21 4f 22 be 86 87 b3 be e7 e8 63 3e 23 9e ac bf
       -0.15850498 -0.35064334 0.22256814 -1.348576
000080 b2 a2 1c 3e a6 15 02 be 92 2b 8c bd 96 d8 16 3f
       0.15296438 -0.1270357 -0.06844248 0.58924234
000090 79 49 92 bf e9 f5 cc bd 18 75 a6 bf d7 2f 13 be
       -1.1428672 -0.10007841 -1.3004484 -0.14373718
0000a0 99 2e 26 3f aa ef 01 be 50 9b f0 bd 8b 83 9a 3f
       0.6491485 -0.12689081 -0.117483735 1.2071394
0000b0 6f 41 66 bd dc a9 18 be eb 8e 60 3f 2e 9c 6a 3e
       -0.056214746 -0.14908546 0.87718076 0.2291114
0000c0 08 80 81 bd c1 76 b5 bd 06 73 8c 3d 94 05 26 be
       -0.06323248 -0.08860541 0.068578765 -0.16213065
0000d0 d1 0a ef bd cd e5 dd 3d d0 99 1e 3e 91 76 b8 bc
       -0.11671985 0.10834847 0.15488362 -0.022517474
0000e0 ca 79 a9 bf 66 8f 5a bd 7b 34 03 bf af dc 02 be
       -1.3240292 -0.05335941 -0.51251954 -0.12779497
0000f0 0d fe c9 bd c6 87 86 3f 22 44 f4 3e db 49 ed bc
       -0.098629095 1.0510185 0.4770823 -0.028965881

fc2_1_2.weight f4 [32, 64]
000000 1d 6c eb bf 51 61 54 3f c5 0a 06 be dd 67 32 bd
       -1.8392369 0.82960993 -0.13090046 -0.043556083
000010 2e b8 12 be 03 fb 65 be 57 2e 7f 3d 8a 0e b1 bd
       -0.14328071 -0.22459035 0.062300052 -0.08645351
000020 f4 43 c2 bd 39 f9 90 bf 1e 0b 40 be 22 03 cd be
       -0.09485617 -1.1326057 -0.18754241 -0.40041453
000030 c0 0f 51 bd 52 58 52 3d 32 fc 0b bf 4a 41 28 3d
       -0.05104041 0.05135376 -0.54681695 0.04107789
000040 0d 6f db bc 7d f9 1f 3f 8f 75 cc 3e a9 8b be bb
       -0.026786352 0.62490064 0.3993344 -0.0058149886
000050 7b f7 05 bd 1a 29 d3 3e db 71 49 3d 3f 8c ff ba
       -0.03270672 0.41242296 0.049180847 -0.0019496753
000060 29 23 0f 3f 51 8e f5 3b 12 fd e8 3d ed b0 f2 be
       0.55913025 0.007493772 0.11376394 -0.4740061
000070 45 97 e4 bd ce 3b 4a 3e a8 ce c4 bf 1b c3 29 bf
       -0.11161665 0.19749376 -1.5375566 -0.6631333
000080 26 2e 02 bf 30 45 9f bb 65 71 81 3d 57 9a e0 3d
       -0.50851667 -0.0048605427 0.063204564 0.10966938
000090 3d d1 c3 3e 2d 0a d9 3d 70 71 0b 3f 30 76 dd 3d
       0.38245574 0.10597644 0.54469967 0.10813558
0000a0 59 3e 81 bf d8 64 5d 3d 57 d7 bc bc 59 30 f0 3e
       -1.0097152 0.05405125 -0.0230519 0.46911886
0000b0 75 b8 b2 3d 29 7d 80 be 67 b6 8b be 5c fc 5d be
       0.08726589 -0.2509549 -0.272876 -0.21678299
0000c0 3b af f0 bd 53 0c 23 bc cd e2 95 bd a3 90 3e bc
       -0.117521726 -0.009951669 -0.073186494 -0.011631164
0000d0 6a 58 9a bc 50 ea 34 3f 07 ed 83 be 11 ee 0c 40
       -0.018840987 0.7067003 -0.25766775 2.2020304
0000e0 a9 68 15 3f c7 ea 74 bd 07 5d 48 3e b1 63 b1 3d
       0.58362824 -0.059794214 0.19566737 0.08661593
0000f0 e0 45 80 3d 17 c3 40 bd 31 14 cc 3f ef c2 da 3d
       0.062633276 -0.047061052 1.5943662 0.10681712
000100 40 fe bc 40 12 f1 c4 3e cf b9 ee bd 2c c2 d3 bd
       5.9060364 0.38465172 -0.11656534 -0.1033977
000110 c8 1c 93 bd 27 c5 1e bf ae f9 c5 bd ad ee 12 be
       -0.07183224 -0.6201958 -0.09666763 -0.1434886
000120 73 e9 3e bd 46 72 08 bf e2 23 1e c0 75 a3 17 be
       -0.046609353 -0.5329937 -2.47094 -0.14808448
000130 ab 50 a3 bd e8 9e 14 bd 1b 94 7b be b5 e6 fa be
       -0.079743706 -0.036284357 -0.24568217 -0.4900414
000140 14 22 5e 3d 6d 9d 0d be da 10 20 3f 55 4e 3b bd
       0.05423172 -0.13829584 0.62525713 -0.045729
000150 c2 20 06 bf 32 d6 d4 3f a9 f6 ca be 23 8d 17 3e
       -0.52393734 1.6627867 -0.39641312 0.14799933
000160 ed e4 a1 be e6 e7 0d 3e 35 51 d8 bd db 2b c7 3f
       -0.3161997 0.13857993 -0.10562364 1.5560259
000170 20 fd bf bc 07 f7 0b bf 1b b8 d5 bc 35 cf 7f bd
       -0.02343613 -0.5467381 -0.026088765 -0.062453467
000180 3e c0 8d bf c8 0b 9d bd 3b 2f 9b 3d ee 9f b5 bf
       -1.1074293 -0.07668263 0.07577368 -1.4189432
000190 85 d9 8d bf 2c af b6 3c 16 81 06 be 40 b5 4d 3d
       -1.1082007 0.022300325 -0.1313518 0.05022168
0001a0 92 21 9b 3f f6 3f 47 3d 48 4d ef 3c 3d f8 ca c1
       1.211962 0.048644982 0.029211655 -25.37121
0001b0 ee ea cb bd 6d 2e db 3e d7 c5 df bf a4 ca 87 bc
       -0.09956919 0.42808858 -1.7482251 -0.016576119
0001c0 9f dc 10 bc 67 e4 20 bd f4 bf 7c bf 14 fe d1 3d
       -0.008841663 -0.03928032 -0.987304 0.1025354
0001d0 06 36 d6 3d e4 c1 ac c0 9e 48 71 c0 3e 0d fd bd
       0.10459523 -5.3986683 -3.7700572 -0.12356041
0001e0 24 0b 0f bf 83 2c f7 bc 08 a6 cf 3e 35 cc 6d 3c
       -0.55876374 -0.030172592 0.4055636 0.014514019
0001f0 a4 a8 b9 3d ce 77 20 bf a3 47 4a 3e 9c b3 58 3d
       0.09065369 -0.6268281 0.1975389 0.052905664
000200 38 de 14 bf 91 16 32 bf 70 92 5e bc a0 f0 b9 3d
       -0.5815158 -0.69565684 -0.013584718 0.09079099
000210 50 17 6c 3d b7 02 07 c1 19 8b ba 3d 51 60 0a bc
       0.05763942 -8.438163 0.09108562 -0.008445815
000220 18 53 cd 3d 23 3a c7 c0 67 47 9e 40 46 b5 d0 bd
       0.100256145 -6.225847 4.946216 -0.10190825
000230 83 cc 68 3d 69 5c a0 bc c6 a2 79 3f dd c3 3d 3f
       0.056835663 -0.019575315 0.97514 0.7412699
000240 64 71 aa bd c3 79 0c 3e 39 0b 07 3e 14 4b 18 3d
       -0.08322409 0.13718323 0.13187875 0.037180975
000250 03 03 17 3f f2 f7 56 3f 67 b9 5d bf 99 98 82 bd
       0.5898897 0.83972085 -0.86611027 -0.06376762
000260 ba 48 26 bf 3b ff 35 3e 79 29 e9 bd da c3 63 40
       -0.6495472 0.17773144 -0.113848634 3.5588288
000270 ec 5b f9 bd c3 dc 20 3f 3e ca 68 c0 de bd c0 bf
       -0.12175736 0.62836856 -3.637344 -1.5057943
000280 08 c4 17 3f 44 7a 29 bd 28 d7 d5 3d bd a9 b3 be
       0.59283495 -0.041376367 0.104414284 -0.35090438
000290 26 b3 88 bf a0 70 14 bd ac 0f 21 c0 cc a2 55 3d
       -1.0679672 -0.03624022 -2.5165815 0.05215721
0002a0 bc eb 64 c1 c5 7c aa bd f0 ac 7e 3c 87 52 b8 3e
       -14.307552 -0.08324579 0.015544161 0.36000463
0002b0 35 db 3d bd 74 ef 53 3f 0e f4 4d bf 12 cf 52 c0
       -0.04635163 0.8278725 -0.8045052 -3.2938886
0002c0 28 65 6f bc c5 0e a5 3c 20 fc 0e c0 2c fc c8 bb
       -0.01461152 0.020148644 -2.2341385 -0.006133577
0002d0 06 b2 80 bd 41 dd 1a c1 60 b7 0b c0 f9 a1 75 c0
       -0.06283955 -9.679017 -2.1830673 -3.838011
0002e0 42 d8 00 3e de 3c 66 3d 95 bb 34 3f 28 f6 46 3d
       0.12582496 0.05621039 0.7059873 0.048574597
0002f0 76 18 c0 bd 22 d2 48 bd 67 0d 5c bd 70 8b 36 3e
       -0.093796656 -0.049028523 -0.05372372 0.17826629
000300 7f 79 87 3e 2a 9b 31 c0 c2 50 0f 3c 1d 75 32 bd
       0.26459882 -2.7750955 0.0087472815 -0.04356872
000310 ea ab a8 3d 8f 2a ee be b8 e6 a0 3d b0 34 ce 3d
       0.08235915 -0.46516845 0.07856506 0.10068643
000320 b6 87 57 bd e2 6d 9a c0 ba 70 04 bf 58 21 03 3d
       -0.05261966 -4.8259134 -0.5173451 0.03201422
000330 8d 38 1b bd 61 00 8b 3d a7 57 05 c0 52 4f 43 3f
       -0.037895728 0.06787182 -2.0834749 0.7629291
000340 f4 c5 4f bd 64 0d c8 bf 22 68 42 3e 09 e7 1c 3d
       -0.050725892 -1.5629086 0.18985036 0.03830627
000350 27 35 08 3f c1 23 80 3e aa 03 bd bd f3 60 cd bd
       0.53206104 0.25027278 -0.092292145 -0.10028257
000360 19 64 a8 3f 8f 26 05 be 76 9a 21 3e 68 14 bd 3f
       1.3155547 -0.1300299 0.15781578 1.4771852
000370 c8 24 e7 3c 25 65 1f 3f fa ac 6b 3f 22 96 02 c0
       0.02821578 0.6226371 0.92060816 -2.0404134
000380 ab fd 2e bf 34 2a fd bd 98 cb fc 3d a9 f5 1b 3f
       -0.68355817 -0.12361565 0.1234352 0.6092172
000390 d2 6c e1 3d df 48 87 bd f7 72 c1 3e 74 dd ac 3d
       0.11007084 -0.06605696 0.37783024 0.08440676
0003a0 bd 79 66 3f 80 7e c3 bb 5a 95 f5 3d f6 30 d2 be
       0.9002951 -0.0059660077 0.11991377 -0.4105298
0003b0 c7 81 81 bd 61 f4 d8 bd 3f 60 a4 3e 67 27 12 3e
       -0.06323581 -0.105934866 0.3210468 0.14272843
0003c0 fa 23 ed 3c 24 48 e0 3b b7 45 55 bf 29 07 cf bd
       0.028947819 0.0068445373 -0.833095 -0.101087876
0003d0 d5 24 a4 bd f2 26 e7 3e 4a 38 13 3f 61 c3 f4 3d
       -0.08014838 0.451469 0.57507765 0.11951328
0003e0 5f 55 08 3e 8b d6 54 bd b2 a1 15 be 5a 02 b5 bd
       0.13313816 -0.051962417 -0.14612463 -0.08838339
0003f0 3c f7 81 bd 6f 5c 10 3f fc 26 d9 bf 25 5e 0e bb
       -0.06345984 0.5639104 -1.6965022 -0.0021723595

fc2_1_2.bias f4 [32]
000000 3a d1 35 40 c9 b2 6f 40 48 69 c9 bf 70 d8 0e c0
       2.8408952 3.7452872 -1.5735254 -2.2319603
000010 9a 26 92 40 7e 7c 9e bf 65 bf 3b 40 98 25 27 40
       4.567212 -1.2381742 2.9335568 2.6116695
000020 e5 3a 10 40 0c e6 bd 3e 99 64 49 40 5f 2f 09 be
       2.2535946 0.37089574 3.146765 -0.13396977
000030 3f 42 d5 3f 65 b6 61 40 11 89 64 40 a7 82 25 40
       1.6660842 3.5267575 3.5708659 2.5860994
000040 d1 8a 43 40 94 7c 05 40 d7 c5 8c 40 82 8b 7e 40
       3.0553477 2.0857286 4.3991504 3.977265
000050 d0 85 13 40 2a f9 e1 bf c1 c6 ca be 20 ad ff 3f
       2.3050423 -1.7654164 -0.39604762 1.9974709
000060 71 e3 31 bd 21 fc da 3f 74 16 11 40 2d af 3b 40
       -0.043429796 1.7108194 2.2669954 2.932567
000070 50 62 65 40 d6 ea 8e 3f 96 ca 23 40 78 a1 4a 3f
       3.5841255 1.1165416 2.5592399 0.7915263

fc2_2.weight f4 [16, 32]
000000 19 50 8b bd 06 26 c3 3b 84 8c 39 bf 43 10 03 3d
       -0.06802387 0.0059554605 -0.72480035 0.03199793
000010 0e 46 d7 3e 7a d4 3d 3e 2f 50 d9 be b9 b1 85 3d
       0.42045635 0.18538085 -0.42443988 0.065280385
000020 4c 50 36 3c ff 1c 4d 3e 0f 10 a4 3e e9 53 db 3c
       0.011127543 0.20030592 0.32043502 0.02677341
000030 16 cd 8f bd 17 70 ae 3d 93 bc be 3e 88 98 a1 3c
       -0.07021539 0.08517473 0.37253246 0.019726053
000040 14 11 13 3d 51 49 b9 bd 9d 4c b6 bc cc 50 2d 3e
       0.03590496 -0.09047187 -0.022253329 0.16925353
000050 cd 71 4d be b7 3c 32 3d 04 21 ae bb 25 55 95 3c
       -0.20062943 0.043514933 -0.0053139944 0.018229077
000060 71 72 33 be 84 1c 6f be 65 f0 6b 3e 14 21 b5 3d
       -0.17524125 -0.23350722 0.23040922 0.088442
000070 40 51 a2 3d b5 00 3e bd 2d db fb be e4 48 61 3e
       0.079256535 -0.046387393 -0.49190655 0.22000462
000080 21 9c 00 be b7 dd 04 3f b7 7d 8f 3f 78 a0 8b bf
       -0.12559558 0.5190081 1.121024 -1.0908346
000090 48 43 2f c0 99 ff a8 bf 1f 9f e9 3f 15 64 af bf
       -2.7384815 -1.3203002 1.8251685 -1.3702418
0000a0 67 27 6e bf 46 eb e2 be a4 d0 1f 3e ce 37 04 3f
       -0.93028873 -0.44320124 0.15606934 0.5164765
0000b0 36 ee b4 bf 6c 0d 1b bf 55 13 f3 bf 07 e8 83 3f
       -1.4135196 -0.60567355 -1.8990275 1.0305184
0000c0 5e e6 41 3f 75 f7 2b 3f 0b 41 dd 3f d9 00 8e 3f
       0.7574214 0.67174464 1.7285475 1.1094009
0000d0 51 5e 3e be b9 1c 98 bf 6f 92 11 bf b2 8c 20 bf
       -0.18590666 -1.1883765 -0.56864065 -0.62714684
0000e0 a2 50 9c bf 44 e1 2e 3f 4a c0 4f 3f 58 6c 23 be
       -1.2212107 0.6831248 0.81152785 -0.15959299
0000f0 d3 52 42 3f d6 d5 43 c0 70 34 5c 3e 83 45 b4 c0
       0.7590763 -3.0599265 0.21504378 -5.6334853
000100 e4 34 bf 3d 11 04 99 3d 71 0d 5a be 3e c9 a6 be
       0.0933626 0.07471479 -0.2129419 -0.3257541
000110 78 99 fa be 55 42 e9 3d df dc d2 bd 3b 83 9c 3e
       -0.48945212 0.11389605 -0.10296034 0.3056887
000120 0d dd 84 3e ba d3 b8 3d fe 37 26 3f ce 2b b2 3e
       0.25949898 0.09024759 0.6492919 0.34799045
000130 58 53 90 3d 95 49 2d 3e a5 9b da 3d ab 0a 86 bf
       0.070471466 0.169226 0.10674218 -1.0472006
000140 3e bb b6 be 7a 4c cd be ab bd d4 3e fd 7b 4e 3f
       -0.3568973 -0.4009741 0.41550955 0.8065794
000150 41 b9 5b bd bf 3d 0c be f5 4b 99 bd 15 29 8a 3d
       -0.05364347 -0.1369543 -0.07485191 0.06746117
000160 fe 9a e7 3d 98 7d aa bd 36 ed 20 bf 40 29 82 3f
       0.11308859 -0.08324736 -0.62861955 1.0168839
000170 ad 8b bd 3e 41 41 3d 3e ee a2 b6 3d 82 16 ab be
       0.37020627 0.18481924 0.08917795 -0.3341561
000180 16 e6 d8 3e 5c e6 6a 3f 80 db de 3d 8d c6 01 bf
       0.42363042 0.9175775 0.1088171 -0.5069359
000190 cb 06 de bf f5 64 d5 be 46 14 d5 3f 1b bc 87 bf
       -1.7345823 -0.41678587 1.6646812 -1.060428
0001a0 91 f8 9e c0 99 16 a5 bf 81 1f b9 bf 38 bb a4 be
       -4.9678426 -1.2897521 -1.4462739 -0.32174087
0001b0 8b 89 18 bf 6c 29 2a c0 18 41 f9 bf 97 92 59 3f
       -0.59584874 -2.6587782 -1.947299 0.84989303
0001c0 e5 6b a6 3f 6d 66 41 3f 20 a5 41 3f 83 55 12 3e
       1.3001677 0.75546914 0.75642586 0.14290433
0001d0 bf 3c 18 bf 22 82 ba be f0 07 82 bf ee 59 47 bf
       -0.5946769 -0.36427408 -1.0158672 -0.77871597
0001e0 98 10 8e bf b7 14 09 3e 63 74 58 3f e7 1e c4 3d
       -1.1098814 0.13386808 0.8455259 0.09576207
0001f0 01 c5 cf 3e 5c 48 98 be de 4d 3a 3e 4a 87 59 3f
       0.4057999 -0.29742706 0.18193766 0.8497206
000200 86 ad 43 be 66 07 b0 3f c2 1d a7 be 6e 1f c0 c0
       -0.19109163 1.3752258 -0.3263989 -6.0038366
000210 08 20 ad be 96 16 e4 3e 2f fc 9b 3e 86 91 1b c1
       -0.338135 0.44548482 0.30465838 -9.723028
000220 00 69 f8 3c 65 25 e3 3f 25 75 26 be 82 d5 fc bf
       0.030323505 1.7745787 -0.16255625 -1.9752657
000230 54 9c 7f bf 6b ce 44 c0 f1 e4 57 3e 24 93 b7 be
       -0.9984791 -3.0750988 0.21083428 -0.35854447
000240 89 68 0b c1 61 66 b2 3f 7c d4 8c be c2 8c 2b c1
       -8.713021 1.3937494 -0.27505863 -10.721865
000250 22 90 c1 bf 82 04 0a 3f fc 47 93 bd c8 7d 1b be
       -1.5122111 0.5391313 -0.07191464 -0.151847
000260 09 7e e4 3c 00 f2 b0 bf d5 b6 cf c0 25 ae 3c c0
       0.02789213 -1.3823853 -6.4910684 -2.948129
000270 65 57 ab 3f 92 85 37 3e cf 4e 7f c0 b1 7c 44 be
       1.3386046 0.17922047 -3.989185 -0.19188191
000280 de 2f 0d be ba 7b 5b 3e c9 e1 fa be b9 97 a1 3e
       -0.13787791 0.21433917 -0.49000385 0.31561068
000290 5c 97 60 be 70 98 ef 3d 13 11 84 3e fd 81 f5 3c
       -0.21932739 0.11698997 0.25794277 0.02996921
0002a0 42 75 ca bd 66 30 41 be 38 fe e3 3e eb b2 2c 3e
       -0.098856464 -0.18866119 0.4452989 0.16865127
0002b0 a7 b2 28 be f6 93 2e bd ef ee 22 3d ef f9 59 3e
       -0.164744 -0.042621575 0.039778646 0.21286748
0002c0 31 c7 6d bc ca f0 95 bb 68 18 48 be a1 ea fd bd
       -0.014512823 -0.0045758234 -0.1954056 -0.123982675
0002d0 01 dc 87 be 65 d3 18 be 34 c0 fa 3d a1 cf 7d bd
       -0.26535037 -0.1492439 0.12243691 -0.06196559
0002e0 e9 72 9a 3c 04 58 23 bf 52 7f 4a 3e f6 b4 33 be
       0.018853622 -0.63806176 0.19775131 -0.175495
0002f0 9a e5 f2 b9 33 c9 85 3e eb f7 a7 be de fd 74 3e
       -0.00046328903 0.26130065 -0.32806334 0.23924968
000300 09 5e ef 3e b1 d3 dd bd 49 03 c9 3d 0a 14 27 3e
       0.4675143 -0.108313926 0.0981508 0.16316238
000310 9c 48 1c be a2 bf 81 3c fa 5d d6 3e 3b d1 65 3d
       -0.15262073 0.015838448 0.41868573 0.05610774
000320 49 16 87 bf 29 ae a0 bd 50 e5 ae be b5 97 8d c1
       -1.0553676 -0.078457184 -0.34159327 -17.699076
000330 6a b9 c4 bd b9 1d cc bd a9 97 1f bd ba 01 ba bf
       -0.096056774 -0.09966607 -0.038962994 -1.4531777
000340 80 22 27 3f f9 dc 4d be f0 f7 09 3d 1e f6 e0 3e
       0.6528702 -0.20103826 0.033683717 0.43937773
000350 3f 70 bd bd 4d 48 0e be a2 1b 95 3d d9 87 32 3d
       -0.09249925 -0.13894768 0.07280661 0.043586586
000360 31 a9 1b 3e 7a 25 0c 3e 30 44 1d be 72 bc 04 3f
       0.1520126 0.13686171 -0.15358043 0.51850045
000370 f8 9f 66 be 23 bc 09 be 4d 69 56 3c 65 ec 8a bf
       -0.2252196 -0.13450675 0.013086629 -1.0853392
000380 60 d2 77 3e cb 93 01 3e 47 bc 4c 3e 9f 2b e1 3d
       0.24201345 0.12654035 0.19993697 0.10994648
000390 77 9d 29 3e e6 9c 46 3e 70 f0 a4 3c 80 d3 04 bd
       0.16563974 0.1939579 0.02013418 -0.032428265
0003a0 4e b2 dd 3b 58 a1 a4 3e 1b 72 f4 3d 3f ee 2d 3d
       0.0067656403 0.32154346 0.119358264 0.042463537
0003b0 ff f6 03 be 32 48 13 3d 4e bb 90 3e d2 fd 0d bc
       -0.1288719 0.035957523 0.28267902 -0.0086664725
0003c0 b7 2b 54 3b 98 65 09 bc aa 56 71 be c7 b4 f5 3c
       0.003237469 -0.008386038 -0.23568216 0.029993428
0003d0 42 cf 64 3d 19 0e 91 3c e4 4a 3e bd e4 f4 0a 3d
       0.05586172 0.017706918 -0.04645814 0.033924952
0003e0 c0 cf ac bd dc 79 b2 bd f6 dd 4e be 39 79 5f bf
       -0.08438063 -0.08714649 -0.20201859 -0.87294346
0003f0 7f 23 38 be 38 08 b3 3d 4b 62 31 3e 6e dc fe be
       -0.1798229 0.08741802 0.17322652 -0.4977755

fc2_2.bias f4 [16]
000000 11 31 0f 3e 8f 3f 1a 40 9b 95 06 bf 07 8a 6a 40
       0.13983561 2.4101293 -0.5257203 3.6646745
000010 fa 13 42 be 73 07 99 3f 71 bd 32 c0 e9 82 6b bf
       -0.18952933 1.1955398 -2.7928126 -0.9199663
000020 65 71 97 bf 05 11 10 40 0b b7 aa be 2e af 17 bf
       -1.183148 2.2510388 -0.33342776 -0.5925168
000030 9e fc 06 3d fa 28 18 c0 58 ac 78 c0 66 29 9b 3e
       0.03295576 -2.377501 -3.885519 0.30305022

fc3.weight f4 [4, 16]
000000 ee e5 31 3d 38 73 99 3c 58 fa c5 3c 92 03 6c 3c
       0.04343217 0.018731698 0.024167225 0.014405148
000010 3b 71 dd 3d da a5 ec 3c d8 3e 7e bd 2f 97 f2 3d
       0.108126126 0.028887678 -0.06207165 0.11845242
000020 aa 81 2e 3e 81 47 98 3a f6 d1 5d bc da ac 50 3e
       0.1704165 0.001161799 -0.013538828 0.20378438
000030 25 dd 73 be 17 65 13 3f 00 ad 18 bc 18 60 b7 3b
       -0.23814829 0.57576126 -0.00931859 0.005596172
000040 2c 64 cb 3c 1a 65 4e bd 60 f7 5e bd 7e 6c 8f bd
       0.02482804 -0.050389387 -0.054435134 -0.07003115
000050 77 9a 95 be 75 4c fd bd 80 fb ed 3d c5 ad 62 be
       -0.2921941 -0.12368099 0.116202354 -0.221366
000060 4e af f3 3d 85 af a4 bd a8 51 c7 3d 17 38 30 3e
       0.11898671 -0.0804129 0.097323716 0.17208897
000070 30 a2 22 3e 96 1c 2a 3f d0 7e cc 3d ea a1 75 3c
       0.15882182 0.6644987 0.09985125 0.014992217
000080 69 2b 1c bd e9 2b c8 3e 86 4e 46 be a8 ee a5 3e
       -0.038127337 0.39096 -0.19365892 0.32408643
000090 22 ca 43 3f b7 b0 48 3d e0 55 74 bd db 36 b4 3b
       0.76480305 0.048996653 -0.05965221 0.0054997033
0000a0 07 d8 71 3d f0 a4 64 be 9d ba dc 3d 6a 23 55 3e
       0.05904391 -0.22328544 0.10777781 0.2081429
0000b0 b5 77 5c bd 22 cf 19 3f 31 d1 a9 be f3 17 79 3e
       -0.0538251 0.60081685 -0.33167413 0.24325542
0000c0 76 a0 85 bd ac 88 b0 bb 28 17 0d 3c 03 e3 20 3c
       -0.06524746 -0.0053873863 0.008611478 0.009819749
0000d0 a4 28 b6 bc ac b8 b8 bd f8 01 8f 3d c9 98 0e 3d
       -0.022236176 -0.09019598 0.069827974 0.034813676
0000e0 a8 20 5d 3c be 28 7e bc 36 a2 6f 3d 20 86 d6 3b
       0.013496555 -0.015512643 0.058504306 0.0065467507
0000f0 60 6c 39 bc fc 4f 08 3b ad e3 d6 39 52 13 57 bc
       -0.0113173425 0.0020799628 0.00040986892 -0.013127165

fc3.bias f4 [4]
000000 74 fa 1a be 9c 4e c2 3e 64 bd c2 3f 67 c4 5d 3e
       -0.15134603 0.379506 1.5214047 0.21656953
