PAPER_IMPORTANT/trained_model_theta0.0001_loss10_epoch3500_1.1061427281016396.pth (torch, 43256 bytes, 14 tensors)

fc1.weight f4 [8, 3]
00000000: de89 a1bc 8507 783e 20ac 0fbf aa6c ad3f
00000010: 5cb3 8a40 7ce3 f4bf c76e 2340 150a 3cbf
00000020: 3b6b bb3e 45ef 9f40 cef4 f23d 16f8 d1bf
00000030: b915 6cbe fc56 073f e6bc c9c0 dfea 13c0
00000040: 6421 463c 60a9 eabe 488b f1bf 9bb8 ca3f
00000050: 0995 913f 891a 15be 973a 8fbe e1b2 a640
-0.01971906 0.24221618 -0.56122017 1.3548787 4.3343945 -1.9131923 2.5536363 -0.73452884
0.36605248 4.9979577 0.11863099 -1.6403835 -0.23055162 0.528671 -6.304309 -2.3112104
0.012092922 -0.45832348 -1.887063 1.5837587 1.1373607 -0.14560904 -0.27974388 5.209336

fc1.bias f4 [8]
00000000: 24e1 41be 9176 e83e 2fd0 a73e b501 8d3e
00000010: 3ebd 013e ea87 543e 2ad1 fd3d 47cc c53d
-0.1893354 0.4540296 0.3277602 0.27540365 0.12669846 0.20754972 0.123934105 0.096581034

fc2.weight f4 [32, 8]
00000000: cfd7 53be 3ab6 183f 43de 893f 7707 bfbf
00000010: 23bb 4abe 9462 37bf 5b75 87bf b44a 43be
00000020: 2378 a13c 1955 da3d dc4b 94be 9267 1b3e
00000030: 0381 7e3f b7c6 aebc 9b85 4f3d 869e 50bf
00000040: 8364 2e3d c4ae 1f3e 53d6 9e3e f252 7bbd
00000050: b160 693d 76af cb3c d0d0 1ebe a07c e6bc
00000060: df03 1bbe febb 153d 58b2 9dbe 0ab9 31be
00000070: 6498 9abd 9883 f3bd f5a3 c23d 8e8a f7bb
00000080: 69d7 79be 9605 873f 813d 053e 2850 993e
00000090: 1d81 7bbe 0b60 c1be b5ba 66be 9c9f 863e
000000a0: 334e 723e 1a95 07bf 6a57 683f f5d7 a9be
000000b0: 5918 f13d d769 f8be 4725 86bf fdae e2be
000000c0: 5b48 873e 9b1d 79bd ba31 083e a179 9dbe
000000d0: 73c7 aabe 59cd d13d 43d7 5c3d f7ea acbe
000000e0: a39b 6a3e 3aba 0abe cea8 34be 17c2 913d
000000f0: a9f8 aabe d815 223e 6bff 5b3e f8e7 0abe
00000100: b857 99be f68a ccbe 6643 49bf b6ee 203f
00000110: d2c2 b93d 3b60 1c3f ad61 a43f 49a2 133f
00000120: 402a 353e 8049 49be ebd1 23be 1929 77be
00000130: 45f0 513e 9c1f b3be 5206 133e f0f7 9bbe
00000140: ac1a 543e da89 03be c31a ea3e 6191 38bf
00000150: 008f 01bf 345c b7be 045d 4cbf bb7c 493e
00000160: 8d63 7abe a4a1 8abe e16a e03b 4da2 79be
00000170: 3517 34bd c41d bcbe cd1e 823e 3a22 a1be
00000180: c180 4b3d 9383 803e 0f97 8b3e 0061 28bd
00000190: 6bec 68be 7f4c afbe 510d 9ebe 5019 d8bd
000001a0: b8ad 323e 215e d93d e815 3e3f 86fe 02c0
000001b0: cc12 263f 2eab b63e ca87 2a3e 7afd e43d
000001c0: a6d4 aabe 933e 29bf 55bb 80be 3c52 ac3e
000001d0: e2b3 b0bf 0654 3d3f c45d d9be 20d0 363f
000001e0: 0813 a1be 1c14 623e 6b00 813e 7d4d a2bd
000001f0: ba93 753e a48f 33bc eb09 85be f029 c6be
00000200: a246 3bbd e05a 63bf 0ed2 28bf b434 a63f
00000210: ca27 613f 53db 4c3f f970 2a3e a817 10bf
00000220: 889e 773c e018 e0bd f35d dc3c 0cd1 ffbb
00000230: a1a0 4dbe 7310 a9be ad57 dc3c 172a 9f3e
00000240: ca0b a4be 2023 5fbe e6c8 a73e abc3 4abe
00000250: 7acc a6be a626 24bc 442a a0be bee8 99be
00000260: 3530 aa3c 772f 473e e928 2d3f 354f b3bf
00000270: c86b cc3e 1e29 b0be 2e1f acbf 4b43 483c
00000280: 5688 03bd b624 e4bd 6b5c 773e 6e10 a23e
00000290: 7ae6 aabe 6041 923d 6d52 34be 2edb 45be
000002a0: f168 04be af4e c2bd 6004 61be 528f 84be
000002b0: 4006 60be a874 de3d 9315 a6be a0b0 9fbd
000002c0: e3e5 88be c91f 53be 7ea6 13be 14a8 89bb
000002d0: 5f78 443d 7b1c 683c aaf6 b03e e89e 7bbd
000002e0: bf28 1c3e a7a9 2abd 2f60 803e 5613 5d3e
000002f0: 74f2 a1be 526f 183e 6032 923e 98f7 823e
00000300: 62f1 4d3e eb81 28be f756 573e 3f7f 543e
00000310: c3f2 89be ec1e 15bc 89a2 e63d 2457 aa3b
00000320: 7369 ad3e b387 203e 5568 233f 28d4 b53f
00000330: a3f5 73be a886 05c0 a3e3 53bf 49a7 9f3d
00000340: 4d2c 943d b7e0 c33e 6776 5cbf a889 143f
00000350: b3a2 7c3f a542 f53d 41e9 3d3f 3e5d 97bf
00000360: 85ef ab3d c49a 02bf df64 4ebf 2fa7 993f
00000370: 02c6 3e3f 5c01 5b3f 5f1b 8a3f 429b 93be
00000380: 48c1 a13e 55eb a33b 949e 71be ce9a 8e3d
00000390: 1dc8 a4be ae51 b9bd 5aa4 47bd 705f 86be
000003a0: 7b6f 02be ab47 18bf 603f 3bbe 2735 893d
000003b0: 7f1e 06bf 8660 3f3e 7e68 c53d d203 333f
000003c0: d10f 903d 1beb 4abe f18e 00bd cbee ef3d
000003d0: 332b 5b3d 55ab 00be 4979 d8bd d3db c93d
000003e0: 91eb 913e 403c 4a3f b904 df3b 07f0 823e
000003f0: bd22 6b3f fd69 9d3e f35c e83e f561 d4be
-0.20687793 0.59653056 1.0770954 -1.4924153 -0.1979795 -0.71634793 -1.0582689 -0.19071466
0.019710606 0.10660762 -0.28964126 0.15176228 0.99415606 -0.021334989 0.050664525 -0.8149189
0.042576324 0.15594012 0.3102289 -0.0613584 0.056976978 0.02486394 -0.15509343 -0.028135598
-0.15138195 0.036556236 -0.30800128 -0.17355743 -0.075485975 -0.11890334 0.095039286 -0.007554359
-0.24398579 1.054858 0.13011743 0.29943967 -0.24560972 -0.37768587 -0.2253216 0.26293647
0.23662643 -0.52961886 0.90758383 -0.33172575 0.11772222 -0.4851825 -1.0480126 -0.4427413
0.2642239 -0.06081925 0.13300219 -0.30756858 -0.33355293 0.10244245 0.053916227 -0.33773014
0.22910933 -0.13547602 -0.17642519 0.07117098 -0.33392838 0.15828645 0.21484153 -0.13565052
-0.29949737 -0.3994977 -0.78618467 0.62864244 0.09070362 0.61084336 1.2842308 0.576695
0.17691898 -0.19656944 -0.15998046 -0.24136771 0.20501812 -0.34985054 0.1435788 -0.304626
0.207133 -0.12845555 0.45723543 -0.7209683 -0.50608826 -0.35812533 -0.7982943 0.19676487
-0.24452038 -0.27076447 0.0068486785 -0.24378319 -0.043967444 -0.3674146 0.25414124 -0.31471425
0.049683336 0.25100383 0.27263686 -0.04110813 -0.22746436 -0.3423805 -0.30869535 -0.10551703
0.17449081 0.10613657 0.74252176 -2.0467849 0.6487243 0.35677475 0.16653362 0.11181159
-0.33365363 -0.66111106 -0.25142923 0.3365649 -1.3804896 0.73956335 -0.4245435 0.71411324
-0.31459832 0.22077984 0.2519563 -0.07924936 0.23982134 -0.01095954 -0.2598413 -0.3870387
-0.045721658 -0.8881054 -0.6594552 1.2984834 0.8795134 0.8002216 0.16644658 -0.56286097
0.01511348 -0.109422445 0.026900267 -0.0078069028 -0.20080806 -0.33020362 0.026897276 0.310868
-0.32040244 -0.21790743 0.3277046 -0.19801204 -0.32577878 -0.01001898 -0.31282246 -0.3006038
0.02077494 0.194517 0.6764055 -1.4008547 0.3992598 -0.3440637 -1.3447015 0.012223075
-0.032112442 -0.111398146 0.24156348 0.3165316 -0.33378965 0.071413755 -0.17609568 -0.19321892
-0.12930657 -0.09487664 -0.21974325 -0.25890595 -0.21877384 0.10862094 -0.32438335 -0.077973604
-0.2673789 -0.20617594 -0.1441898 -0.0042009447 0.047966357 0.0141669465 0.3456319 -0.06143084
0.15249918 -0.0416657 0.25073382 0.21589407 -0.3163029 0.14886215 0.28554058 0.25579524
0.20111611 -0.1645581 0.21029268 0.20751666 -0.26943025 -0.009101611 0.1126147 0.0051983763
0.33869514 0.15676765 0.63831073 1.420537 -0.23824172 -2.0863438 -0.8276922 0.07795579
0.07235012 0.3825738 -0.8611817 0.58022547 0.9868576 0.11975602 0.7418404 -1.182533
0.08395294 -0.51017404 -0.8062267 1.2004145 0.74520886 0.8554895 1.0789603 -0.2882939
0.31592774 0.005002419 -0.23595649 0.069631204 -0.32183924 -0.09048782 -0.048740722 -0.26244688
-0.12737839 -0.59484357 -0.18285894 0.06699591 -0.52390283 0.18689165 0.09639071 0.69927704
0.07034267 -0.19816248 -0.03138632 0.11715468 0.053507995 -0.12565358 -0.10570008 0.09856381
0.28500035 0.78998184 0.006805983 0.2557375 0.9184988 0.30744925 0.45383415 -0.41480985

fc2.bias f4 [32]
00000000: cc14 ae3e 1c07 203e e192 95be f11b 39be
00000010: 380e 65bc 4176 2d3f 5654 0abd d5d6 54be
00000020: e0f9 4e3e 0cd3 98be fd34 213f 87db fc3d
00000030: 6ae6 babe 8a33 243f f2be d43e 00e2 c3be
00000040: 94b1 be3d 0f26 75be b728 0bbe c982 d93e
00000050: 9a48 b2be e7a8 9bbe 55ba 8cbe 8d06 b2be
00000060: 79bc 81be c543 da3d 37fb 2bbe 1ce5 7bbe
00000070: 6008 aa3b 9fe5 f43e 1fe4 e3bd 3620 c6bd
0.34000242 0.15627712 -0.29213622 -0.18077065 -0.013980441 0.67758566 -0.033771835 -0.20785077
0.20212507 -0.29848516 0.6297148 0.12346559 -0.36503917 0.6414114 0.4155193 -0.38258362
0.09311214 -0.239403 -0.1358975 0.42482594 -0.34821016 -0.304023 -0.2748591 -0.34770623
-0.25339106 0.10657457 -0.1679505 -0.24599117 0.0051889867 0.47831437 -0.11127495 -0.096741125

fc2_1.weight f4 [64, 32]
00000000: dabe a7be 63cf c53d 25e1 eebd 17a1 17be
00000010: 2230 1a3f 74d5 213f 81c6 c7bd 5bed 1e3d
00000020: 67a3 bc3e fa0b 893d 50d8 9abe e455 1b3e
00000030: 210c 043d bd9e 42bf ad90 a33e d167 01be
00000040: 7d98 783f 6298 24be f672 8d3d 94a6 7cbf
00000050: b9c3 0fbe a6d1 fcbd 8f86 59bd d942 1fbd
00000060: 0f5e 553d bd20 88bf 044f 35be 42c2 5cbf
00000070: b3c6 bd3c dd4b a7bd 4c9c 14be 84f1 0e3f
00000080: 4232 1e3f 19bb 51be 5e9c df3d 0c00 333e
00000090: acb4 623d 1b09 acbd 5e6a 2dbe b193 08be
000000a0: 29b8 853f bf9c 1f3e d852 4d3f c1be 47bd
000000b0: 1ea8 783d 2f26 7ebf 7c4b d23e 36da af3d
000000c0: 88b1 073e 56d7 24bd 7183 b13d e1dd 5d3f
000000d0: 92d4 bc3d db6f 91bd ba60 14be 64c9 ff3d
000000e0: 8c4e 813d ac95 28bf 6ee5 8f3d 26af 1cbf
000000f0: db2a c8bd 7387 f93e a647 b73b 76e1 6cbe
00000100: 93f0 073e 119e aabd e9ad e23c 171b 07bd
00000110: 27ad 2b3e 0498 0bbd a2eb 163e 4931 9e3c
00000120: 21b0 c7bd 8d8f e83d 7ca5 af3d ac82 2cbe
00000130: 38dd 34be 3854 4e3d e6bc f53d e1cb ddbc
00000140: ad6f bfbd 431a ff3b 3d3f 03bb 07f0 a7bd
00000150: 0bb3 193d 2637 1bbe 16d0 bebd 1273 5d3d
00000160: bfbe 9bbc e7ad 8ab9 c20c 793d 9c6a 7a3b
00000170: 828d b5bd 2fc4 b1bc 03d7 1a3e bce9 04be
00000180: 160e 853d 9050 83bb 21b6 093e 5c89 9bbc
00000190: cdcb 8f3c 2076 b4bd 07d9 e53d de11 ac3d
000001a0: 5a7c 1ebd 0865 163e c833 90bd f9a7 17be
000001b0: 7b5a 1dbd bfa2 ac3c ddf4 bcbd 7e14 fbbd
000001c0: a14e 11be 9f9a 2fbd dcc1 2cbd 394b cdbc
000001d0: 5abc 3a3d d236 a73d 09f6 203e 9c36 813d
000001e0: b4c2 efbd ea90 aabd 3696 1e3e ef20 abbc
000001f0: b469 b9bd 916b 033d 0cc6 15bd 6012 223c
00000200: bb9a c03d 80d4 50bd bf2d 5e3d ec50 30bd
00000210: f5ef a3bd cb24 2cbe 973a ccbb 4697 25be
00000220: 5db0 cbbd d8ee 643d ff56 5f3d 2c23 883d
00000230: 8e42 04be 1c32 0a3e 1ecb 31be 808b 2b3e
00000240: d222 9fbd 6d52 2ebe a99f 7bbb 0591 2dbe
00000250: 3321 2d3e e66a 8ebd 7633 073c ffc2 e13d
00000260: 6cd3 313d 0687 9ebc b0f2 8f3c a291 d33d
00000270: 7fb9 993c 6970 70bd c72a 27be ad22 72bd
00000280: d95a 48be 966b a63e 82d4 ba3d c3d3 92bc
00000290: b825 9ebe da61 263e 57e9 8dbd 7324 eebd
000002a0: d67e 63be d8d4 5a3d 0409 62be 7b4a 093e
000002b0: 6101 433e 476c 013f 9f92 933d 4420 d9bd
000002c0: 11d4 233f 84da 343e 9e10 fa3d 137c b13d
000002d0: ac1a 0cbe 85d5 12be 9abe 433d ae8d 06be
000002e0: 0a16 983d bbfc 913f a6f7 8ebe 1d34 b43e
000002f0: d9ac 893b d0df e5be b3f8 463e 8404 d6bc
00000300: e6bd 6cbe 48cb 403f 2f4f 10be 4643 1abd
00000310: fe69 aa3f 366b 9abe 9b6a d2bd 88ae 01be
00000320: 0af3 3a3e eaa4 d63b 9722 5cbf 17f2 21be
00000330: 6162 533d ba65 65bf 6b27 63be dd94 68bd
00000340: 7d4d 09bf 07db 17bd 0013 25bd 632b 84bf
00000350: 56d2 2f3e a8ae d43d d733 893d be63 ecbd
00000360: 01fb e13d 2785 5dbf 4468 4e3d e9d2 393e
00000370: 8ff4 abbd 68eb e6be 2642 143e 0959 993f
00000380: e451 4b3e e963 25bd 99ba c93d 2b75 093d
00000390: 88f1 2abe ca49 49bf 61ac 40bb 8f62 23bd
000003a0: 0ba5 37bf f310 ce3c 56b9 01bf aab1 3bbd
000003b0: 800c 70bd 63de cc3f 8506 e4be 95b1 e13d
000003c0: 3f36 28be c6ce 26be 5ba6 55bd a711 8b3f
000003d0: 64cf b7bd ea29 d3bc 9cd7 303e ea1a 93bb
000003e0: 8798 783d 532c 953f aa0b b23d 18eb 79bf
000003f0: 54cf 063d 01ea a3bd 3ede c8bd 5475 e7bd
-0.32762796 0.096586965 -0.11664037 -0.14807545 0.60229695 0.6321633 -0.097546585 0.03880058
0.36843416 0.066917375 -0.30243158 0.15169483 0.03223813 -0.76023465 0.31946316 -0.12637259
0.9710768 -0.16073754 0.06906693 -0.9869168 -0.14039506 -0.12344675 -0.05310684 -0.03888211
0.052091654 -1.0634991 -0.17705923 -0.86233914 0.023166036 -0.08168767 -0.14512748 0.55837274
0.6179544 -0.20481528 0.109184965 0.17480487 0.055348083 -0.08400174 -0.16935107 -0.1333759
1.0446826 0.15587138 0.80204535 -0.0487659 0.060707204 -0.99277014 0.41073215 0.08586542
0.13251317 -0.040244423 0.086676486 0.86666685 0.09220232 -0.07101413 -0.14490023 0.12489584
0.0631381 -0.6585338 0.07026182 -0.61204755 -0.09773799 0.48736152 0.005593258 -0.23132882
0.13275366 -0.0833093 0.027670817 -0.03298482 0.16765271 -0.03408052 0.14738324 0.01931061
-0.09750391 0.11355505 0.085764855 -0.16846722 -0.17662513 0.050373286 0.1199892 -0.027074756
-0.09347472 0.007785113 -0.0020026707 -0.082000785 0.037524264 -0.15157756 -0.09317033 0.054064818
-0.019011853 -0.00026450978 0.060803182 0.0038210517 -0.08864881 -0.021699993 0.15121083 -0.12979788
0.06496827 -0.0040074065 0.13448383 -0.018986396 0.017553234 -0.08811593 0.11223035 0.084018454
-0.03869281 0.14686978 -0.070411265 -0.1481017 -0.038416367 0.021073697 -0.092263915 -0.12259768
-0.14190151 -0.042872068 -0.042177066 -0.025060283 0.045589782 0.08164753 0.15718855 0.06309244
-0.117070585 -0.083284214 0.15486988 -0.020889727 -0.090533644 0.032085005 -0.036565825 0.009892076
0.094045125 -0.050983906 0.054242846 -0.043045923 -0.080047525 -0.1681091 -0.0062325704 -0.16170987
-0.09945748 0.05589184 0.054526325 0.066473335 -0.12916014 0.13495678 -0.1736264 0.16752434
-0.07770313 -0.1702363 -0.0038394725 -0.16949852 0.16907196 -0.06953983 0.008252015 0.11023521
0.04341452 -0.019351494 0.017571777 0.10330512 0.01876521 -0.058700953 -0.16324912 -0.0591151
-0.19565906 0.32503957 0.09122564 -0.017923241 -0.30888152 0.16248265 -0.06929272 -0.11628046
-0.22216353 0.05342564 -0.22073752 0.13407318 0.19043495 0.50555843 0.072057 -0.10601857
0.6399546 0.17661482 0.12210201 0.086662434 -0.1368205 -0.14339264 0.047789194 -0.13139984
0.074260786 1.1405252 -0.27923316 0.3519601 0.0042015132 -0.44897318 0.19430809 -0.0261252
-0.23119316 0.7531018 -0.14092706 -0.037661813 1.3313596 -0.3015992 -0.1027424 -0.12664235
0.18256775 0.006550421 -0.8599028 -0.15815006 0.051607493 -0.8960835 -0.22183006 -0.056782592
-0.5363386 -0.037074115 -0.040301323 -1.032574 0.1717008 0.103848755 0.06699341 -0.11542462
0.11034203 -0.865313 0.050392404 0.18146862 -0.08396255 -0.45101476 0.14478359 1.1980296
0.19855458 -0.040378485 0.09850044 0.033559006 -0.166937 -0.7862822 -0.002939962 -0.039888915
-0.7173621 0.025154566 -0.50673425 -0.04582373 -0.05860567 1.6005367 -0.44536224 0.11020199
-0.16426943 -0.16289815 -0.052160602 1.0864762 -0.089751035 -0.025776822 0.17269748 -0.0044892924
0.060692336 1.1654152 0.08693631 -0.9762435 0.032912567 -0.08003617 -0.09808014 -0.113016754

fc2_1.bias f4 [64]
00000000: 14af a13e 6563 373f fe24 52be 33ea 0cbe
00000010: 1d17 22bd 13da 97be ad15 ce3e ce84 46bf
00000020: 450a 1a3f 110e 503f fffc 4bbe 86d3 1b3e
00000030: 7cf4 45bd 998d b03d a2f9 f8bd d272 1fbe
00000040: b9be 4e3d 2d68 7abd af6d 7bbe 4f15 a0be
00000050: e69e 1a3f 8572 3fbd e3d7 713d 2614 1f3f
00000060: f77b 8b3c 3c03 073f 904b 2b3f 19c2 cebd
00000070: 4a37 823f 7a5e 493f 410b a3bd 86c4 433f
00000080: c9ef 31be cc8b e63e 03e4 883e 9597 b83e
00000090: 9bd3 51be 4119 e4bd ea31 3dbf b5ae 3f3f
000000a0: 6674 efbd 3c91 fcbd 112f 40be 64f0 74be
000000b0: f334 7bbe a2fa 9c3e 481a 4bbd 4d2b ae3e
000000c0: 5dd4 d0bd b76e a7bd e570 e7bd 4ba4 b1bd
000000d0: 66a4 333f 84e9 d1bc 0824 1dbe e55e de3e
000000e0: 7a29 9fbd 129a 1bbe 3274 3e3d e560 3fbd
000000f0: 8ffd 42be f19b 283f ff8c 24bd 465c 51be
0.31578887 0.7163604 -0.20521924 -0.13761215 -0.039572824 -0.29658565 0.40250912 -0.77546394
0.6017192 0.81271464 -0.19920729 0.15217409 -0.04832886 0.086207576 -0.12156989 -0.15571144
0.050474856 -0.061134506 -0.2455356 -0.31266257 0.6039871 -0.046740074 0.059043776 0.6214012
0.017026884 0.5273931 0.66912174 -0.10095615 1.0173123 0.78659785 -0.07961131 0.76471746
-0.17376627 0.45028532 0.2673646 0.36053148 -0.20490877 -0.11137629 -0.7390429 0.74875957
-0.11692123 -0.12332389 -0.18767954 -0.23919827 -0.24531917 0.30659968 -0.04958561 0.3401741
-0.10196755 -0.08175414 -0.1130083 -0.086739145 0.7017273 -0.025624044 -0.15345776 0.43431774
-0.07771583 -0.15195492 0.04649753 -0.046723265 -0.19042037 0.6586295 -0.040173527 -0.20445356

fc2_1_1.weight f4 [64, 64]
00000000: 806c a33d 2791 b13d 002e 55bb 786a 00bd
00000010: a45e 523d 0b16 8abd 3ef1 ddbd d605 123d
00000020: 3561 04be 0ec2 cebd 26e9 95bd bc80 78bd
00000030: 74c3 25bd 4252 99bd c8e7 ffbc 3067 fb3d
00000040: 7726 16be 26aa e43d a03b 33bd 07c2 dfbd
00000050: 8279 1ebe 14b6 17bd f7e2 f8bd 46ba 5b3c
00000060: d4c0 98bd caf1 d53d 4e01 e03d f8bc 313d
00000070: c3e1 47bc 3b05 a63d 9ce5 cd3d e9ca ec3c
00000080: fc75 6bbd 1a7d 84bd 1c33 bebd 52f1 e6bd
00000090: 6c1e 773d b66d e8bd 1aad 1a3d 2946 6dbd
000000a0: 74e2 d2bd da67 e23d 1036 863d 8a93 fdbd
000000b0: d4bb 623d 5e10 84bd 2e0d aebd c3e0 963d
000000c0: 6056 583c d003 5bbc 80e6 54bc 5a09 f23d
000000d0: fc05 08bd 9cb7 d6bd a4aa 103d ea32 afbd
000000e0: bc38 c8bd 7a3d c13d 9a8f a0bd f06b 02bc
000000f0: 684d 7bbd f429 ad3c 60e2 e53c 44db c33d
00000100: db55 cbbc 5ebb fd3c ee18 dabd 5040 3abc
00000110: 56b4 c13d 79fd 933d 7faa a4bd 53a2 4a3d
00000120: 2766 12be d87c ab3c 6098 d23c 4a58 443b
00000130: 74eb 02bd 08c6 393d 10c6 7d3c ce8f d8bd
00000140: 8cf4 2dbd 5053 2dbd d075 5dbd 6702 c0bd
00000150: 6335 9f3d 40c9 e63c 2279 843d e010 e1bc
00000160: b087 19bd 8e1a a3bd 53de d6bd 5440 5bbd
00000170: ccea 683d aee5 51bd c809 323d da64 a33d
00000180: 6ae9 953d a6a7 12be 1e69 0fbe 3e9f cfbd
00000190: b4ea 68bd 9029 0fbd bab3 b1bc 2013 2a3d
000001a0: 4ecb ebbd 5872 e3bd a06a 7cbc 8eb4 6d3c
000001b0: 3883 823c f956 dfbd 6863 9dbc 000e fcbd
000001c0: 443c ffbd ac83 1dbd b093 dabc 6e68 d43d
000001d0: 000c fdbd 4027 cbbd 3861 ac3c dfa3 d7bd
000001e0: 1a6c dbbd 9085 8c3d 3a00 883d 8a54 ff3d
000001f0: c021 7c3d b24c b33d e014 85bb e0d7 cfbc
00000200: fa4b 703e 7f1b 98c0 2cf5 073d 90b0 d8bd
00000210: dde8 dabc ec1d 6ebe f586 563f 427b 953f
00000220: 8f63 59be 96a5 53bf 528c e03d c58e e93e
00000230: 8898 bc3d 25a9 b2bf 2669 e0bd f05f 08bc
00000240: c860 b1be e177 613c cb6e cfbd c087 31bf
00000250: efa1 27bd 2c13 933d 150c 8ec0 52ab 8ac0
00000260: 78b1 fe3c eba2 c93d 793f ca3e 7cf7 7b3d
00000270: 9640 e7be 9683 ccc0 f324 a2bc e791 1ec0
00000280: b2d6 93bd 4727 4cc0 1774 ba3f 117d cf3e
00000290: a006 443d 481e 4a3d 8f15 d7bd d444 11be
000002a0: f3f2 c53d 4e8b bb3d 3cfe 3ebd 368b 283e
000002b0: b52b 2e3d b5cd 7cbf b0e0 f7bc 92a1 523f
000002c0: 9fc2 95bd 34e2 e5bd b093 1b3c cc70 453d
000002d0: 6d02 33be c4b7 4cbd d4b4 ab3d 6892 c8bd
000002e0: 0639 fd3d d411 713d 2758 ae3c 8829 ebbd
000002f0: bbf1 20bf d2a1 ea3f 7300 cf3d a039 d83d
00000300: d42d eabf 87ba b53e 8acd 6abd 1ebf c0bd
00000310: 44b2 96bd 0fc6 2a3f 950c 6e3f bb27 ce3e
00000320: 97cf 44c0 9500 373f d106 783d bb69 85bf
00000330: 3390 cabc 05af 5fbe d977 b53b d687 9d3d
00000340: ca30 b53c 82de 923d 44a7 7ebd 035f 243f
00000350: e135 08bf 5710 9bbd 6a58 3f3f 3c26 bb3e
00000360: 204b cb3c 8c12 35bf 9e23 c2bf ca02 69bc
00000370: 46f9 8bbf 2faa edbe 9ffa 3ebd e8a6 adbe
00000380: 108b abbd 043a f43e 6744 dbbf 57a6 1ec0
00000390: 984d a9bd 5215 e63d 5bf4 703f c6f8 54c0
000003a0: a8ad a03c 8af5 973d 5027 ad3c e1fa 9d3f
000003b0: bff7 06bd a5de e23e 56d5 9dbd cd5d c7bf
000003c0: cb0a aa3d 01a8 c1bd d4a2 c0bd f746 8dbc
000003d0: 36b8 3c3e a6cd b6bd eb3a 053e 6047 9bbf
000003e0: 1b9d 43bd e42b 36bd f801 cebd 014a 863c
000003f0: 9365 243f a2fe abbd 06a5 bc3c c640 df3d
0.07979679 0.08670264 -0.003252864 -0.031351537 0.051359788 -0.067424856 -0.10837029 0.035650097
-0.12927707 -0.10095607 -0.0731986 -0.060669646 -0.0404696 -0.074863926 -0.031238452 0.12275541
-0.1466311 0.11165266 -0.043758035 -0.1092568 -0.15476039 -0.037038878 -0.12152665 0.01341111
-0.07458654 0.10446508 0.10937749 0.043393105 -0.012199822 0.081064664 0.1005356 0.028905349
-0.057485566 -0.06469174 -0.09287092 -0.11276497 0.060331747 -0.11349051 0.03776274 -0.057928238
-0.10297099 0.11054964 0.0655328 -0.123816565 0.055354908 -0.06448434 -0.084986076 0.07367089
0.013204187 -0.013367608 -0.012994409 0.1181819 -0.033208832 -0.104842395 0.035318986 -0.08554633
-0.09776446 0.09435554 -0.0783989 -0.007960305 -0.061353117 0.021138169 0.028062046 0.09563306
-0.024821213 0.030973133 -0.10649286 -0.011367872 0.094582245 0.072260804 -0.08040332 0.04947121
-0.1429678 0.020933554 0.025707424 0.002995985 -0.031962827 0.045354873 0.015489116 -0.105743036
-0.042469546 -0.04231578 -0.054067433 -0.09375458 0.077738546 0.028172135 0.06468417 -0.027473867
-0.037482917 -0.07964049 -0.10491624 -0.053528145 0.056864545 -0.05124443 0.04346636 0.0797822
0.07319911 -0.14321765 -0.14004943 -0.10137795 -0.056864455 -0.034951746 -0.021692146 0.041522145
-0.11513387 -0.11105794 -0.015406281 0.01450838 0.01593171 -0.109052606 -0.01921244 -0.12307358
-0.12462667 -0.03845565 -0.026681751 0.10371481 -0.123558044 -0.09919596 0.021042451 -0.10529303
-0.10713978 0.068614125 0.06640668 0.124672964 0.061555624 0.08754863 -0.0040613264 -0.025371492
0.23466483 -4.7533565 0.0331928 -0.105805516 -0.026722366 -0.23253602 0.8379968 1.167824
-0.21229385 -0.8267454 0.10964264 0.45616737 0.092087805 -1.3957869 -0.109575555 -0.0083236545
-0.3464415 0.0137614915 -0.10128554 -0.69347763 -0.040925916 0.07181391 -4.438975 -4.333413
0.031090483 0.09845527 0.3950155 0.061515316 -0.45166463 -6.3910627 -0.01979301 -2.4776552
-0.07218684 -3.1898973 1.4566678 0.40525106 0.04785788 0.049345285 -0.10502159 -0.14186412
0.096654795 0.0915743 -0.046629176 0.16459355 0.04252215 -0.98751384 -0.030258507 0.82277787
-0.07312512 -0.112247854 0.009495661 0.048203275 -0.17481394 -0.04997994 0.083840996 -0.0979355
0.12364392 0.058854893 0.021282269 -0.11482531 -0.6286885 1.8330634 0.101075076 0.10557866
-1.8295236 0.35493872 -0.057324924 -0.09411453 -0.0735822 0.66708463 0.9298795 0.40264687
-3.0751703 0.71485263 0.060553376 -1.0422891 -0.024726963 -0.21844108 0.0055379686 0.07691924
0.022117991 0.07171346 -0.062171236 0.64207476 -0.5320721 -0.07571476 0.74744284 0.36552608
0.024816096 -0.70731425 -1.516712 -0.014221856 -1.0935447 -0.46418902 -0.04662573 -0.33916402
-0.083761334 0.47700512 -1.713025 -2.4789026 -0.08266753 0.11234535 0.94122857 -3.327684
0.019614056 0.0741988 0.02113691 1.2342187 -0.032951113 0.4431049 -0.07706706 -1.5575501
0.0830284 -0.09455872 -0.09406057 -0.017245753 0.18429646 -0.08925943 0.13010757 -1.2131157
-0.04775725 -0.04447545 -0.10058969 0.01639271 0.6421749 -0.08398177 0.023027908 0.109010264

fc2_1_1.bias f4 [64]
00000000: afbb 0abe 4b73 f4bd 6983 dbbe c615 c8be
00000010: c977 02be 4016 0fbe 43a1 2dbd fdb8 d7be
00000020: 7307 b6bd dfbc f8be da1e 19bf f949 1bbe
00000030: 67db bcbd fcde 73bd 988a b0bc 14ab 533d
00000040: 035c 7cbd c6c5 fdbd 2bdc e4be e1e1 6f3b
00000050: 0434 19be de3f d13e 1863 b7bd 280c cd3e
00000060: 392c 03be d22d cbbd f906 263d 1a71 47bd
00000070: 2d48 21be bda8 3f3d 0ebf 133e 5aa3 a0bd
00000080: 6ecd 03bd 5a56 e73d 65e3 19be d6d7 54be
00000090: 5dcb 18bf feb4 aebe 1eb6 e3bd b03f 0dbe
000000a0: d93c 18be 90f0 c13d 9123 93bb ac18 aabd
000000b0: 7af6 02be d582 4dbf 5739 f0be 48c4 5cbe
000000c0: ee32 a03d 3b77 fc3e 7d4f f8bc ddaf 13be
000000d0: 06e2 b1bd 3d47 98be 0371 b2be cf4f 8abe
000000e0: 3fc4 a53e a0fe 00be 7b85 2a3d 6fea e6bd
000000f0: 504b 39bd 1483 8e3c be61 113f 2919 0fbd
-0.13548158 -0.11936053 -0.42873695 -0.39079112 -0.12741007 -0.13973331 -0.04239012 -0.42133322
-0.088881396 -0.48581597 -0.598127 -0.15164937 -0.09221535 -0.059538826 -0.021550462 0.051676825
-0.061611187 -0.12391238 -0.44699225 0.003660314 -0.14961249 0.4086904 -0.089544475 0.40048337
-0.12809838 -0.09920849 0.040533993 -0.048691846 -0.15750189 0.04679178 0.1442835 -0.07843657
-0.032178335 0.11295767 -0.1502815 -0.2078546 -0.5968531 -0.3412246 -0.111187205 -0.13793826
-0.14866962 0.09469712 -0.004490324 -0.08305487 -0.12789336 -0.8027776 -0.46918747 -0.2155925
0.07822214 0.49309716 -0.03031134 -0.14422555 -0.08685689 -0.2974185 -0.34851846 -0.27014014
0.32376286 -0.12597132 0.041631203 -0.112751834 -0.04523784 0.017396487 0.5678977 -0.034936104

fc2_1_2.weight f4 [32, 64]
00000000: 5e4c 3fbc 4a2d d1bd 2498 29c0 2b9e c8c0
00000010: 6897 863c 82cd 2abe cc61 9c3d b6cf 1e3d
00000020: 2a1c 0fbe 1b8a 21bf ef9f 62c1 8286 9e3b
00000030: 62f7 7cbc 0aa2 ac3b 70a4 0e3c 228d b3be
00000040: 3eef a73d 22a9 3c3f 539f abbe 5638 aabe
00000050: a05e 2fbb df83 243e d08b ffbb f711 833f
00000060: 4cbb 13be a366 8dc0 d21d fb3e c0b2 e3bf
00000070: 7bcf cbbd a37d 423b 0e62 71bd 6013 063c
00000080: ddd2 8c3d 0da8 903e 66bd 973d 9a92 f6bf
00000090: c564 4240 f9ae 9dbe 78d5 983d aacc 943d
000000a0: 3f95 adbd 7896 1d3f 5f38 24bf 97bc cc3d
000000b0: 0e67 e33d dcbc 3ebe dd9c 47c0 8c18 823e
000000c0: 5222 f33e bed1 0a3f 1e6d a5bc fb4e a2c0
000000d0: d0f0 1dbe 24a2 01c0 1b12 2cbe 8ffc 533e
000000e0: 8fbb 27be 68ca 7e3d c642 b0bd 329d 28bf
000000f0: 980a cebc 99b7 a13d 7862 8bbe c4f3 c8bd
00000100: 1a89 8a3d ae08 c6bd 63b2 19bf 2c45 f13d
00000110: 4c69 1fbd 789f 1bbd 7bd0 a7be 8cec 02bf
00000120: 6167 82bc 1f7a 513c 0cbd 5f3d 476b abbf
00000130: 648f 993d 95f9 843f 08a8 fe3c 1eab 2fbd
00000140: f81d 15bf 6575 a8be 449c 6bbe 1873 09bf
00000150: 2c99 f03d 2347 153f 45b4 873d 81fb 933f
00000160: 60fb 9bbd 6e9f b0bf 22e2 f53d 8f22 8abe
00000170: 5a7f e33d 5c16 45bd cd1e 11c0 40b2 fc3b
00000180: 18f4 a43c 104e 5abf 38bc 6cbd 7f83 b6c0
00000190: 4ea4 a73d 4c5e c4bf c6c2 94bd 04bd b43d
000001a0: f5f8 9ebc 9919 d93e 8e91 e2be b166 b83d
000001b0: 5315 6d3d bb35 da3e 57aa 153f 59d3 1ac0
000001c0: b088 b5bd 4b4e bb3f 983d b4bd 8d95 1ebd
000001d0: e3f6 4abd 2c14 d0be 9e0b d33e fc89 4bbd
000001e0: 4277 a93e e47b ae3d 28e0 663e 164e 6dbf
000001f0: 60a7 783d ddaf c5bd 367f 29bf 5749 1c3e
00000200: 99aa b7bd e8be 2abd 532a 803f 20f4 ad3e
00000210: 90c7 18bd b258 2cbe 988b 7c3d 8e43 d7be
00000220: ac9e ecbc 34a6 1abe 7e62 1bbd 224d 8ebd
00000230: ac24 de3d 68f6 c1bf 087a 223d 6130 31bf
00000240: 2ae6 b13e 59d2 45bd ae05 3ebf d7fd 813f
00000250: 88e9 883c 7188 a13e 3df9 0d3b 2026 a63d
00000260: 581d 623d 626a dd3c a681 243d 93b3 e13e
00000270: ae17 8ebd 9c84 81bc 8584 dabf 80d8 e43c
00000280: 744e 0c3d 16e3 e43f a891 e53d 7b44 b9bf
00000290: 41b2 b6bf 7795 df3e 049a e33d 749b fbbd
000002a0: 89dd 933d f5bf c3bf d5ce 8abd d43d 8abb
000002b0: 44e2 243d 1ace 29bf 00a1 3f3e c1df 403f
000002c0: 9b90 a03f 151a e13f 78ab bd3d fa61 e4be
000002d0: c4c3 653d 5a55 173f d459 e5be ebd4 033f
000002e0: 8560 e3bf 8442 13bd 5caf 71be be68 c6be
000002f0: f82f a83d 3de0 493d 4a7c 943f 8d70 fcbc
00000300: aef6 4fbd e908 ba3d 149d 303e 9761 cb3f
00000310: 1be1 90bd ed1e ffbe cbcd b4bf 779e 8c3d
00000320: 2fe7 c03d 1ed7 0cbf c8c4 183e 2d11 ec3d
00000330: c2a5 a93d 8dfe 1ac0 e06c eebd 4673 b13e
00000340: 71e8 43be 5944 95be f316 93bc 9331 cabd
00000350: 5014 1cbd 6ddb 863d 7e0c c8bc b577 043e
00000360: 380f 36bd f47b 59c0 7203 8f3e 66f0 223f
00000370: 46e1 e73d f50c 1a3e e66d 2bbe 14a0 563d
00000380: b4b3 0abe 94f7 8bbe 945c a0bd c542 b63e
00000390: 2dde 8bbf 092c 78bf d608 ea3d 0076 98bd
000003a0: 48bb 503d 46c3 0dbf 4d69 59bd 7dff e2bd
000003b0: f708 aebc 9fb4 4ec0 36f8 20be 555c 0cbf
000003c0: 9c4c 9e3d 23e5 423f 842f 89bd db96 dabe
000003d0: d23d ba3d 21ee 41bf daea ba3c 5c2d cac0
000003e0: 77f9 ad3e ce96 d2bc 875d 003f 458b 79bf
000003f0: f004 cfbc b19f 08be 3607 89be ab2f 153e
-0.011675922 -0.10213716 -2.649911 -6.2693076 0.016429618 -0.16679958 0.07635841 0.038772307
-0.13975587 -0.6310136 -14.164046 0.004837812 -0.01543984 0.00526834 0.008706197 -0.35068613
0.08199929 0.73695576 -0.33519992 -0.33246106 -0.0026759282 0.1606593 -0.0077986494 1.0239857
-0.14426917 -4.418779 0.4904619 -1.7788925 -0.09951683 0.0029676936 -0.058931403 0.00818333
0.068761565 0.28253213 0.07409172 -1.9263489 3.0374005 -0.30797556 0.07462591 0.07265599
-0.08475732 0.6155772 -0.64148515 0.09996908 0.111036405 -0.18626732 -3.1189492 0.25409353
0.47487122 0.5422629 -0.020193633 -5.072141 -0.15423894 -2.0255213 -0.16803782 0.20701812
-0.16380142 0.06220475 -0.08606486 -0.6586486 -0.025151536 0.078963466 -0.27223563 -0.098121196
0.06764431 -0.09669624 -0.6003782 0.117807716 -0.03891878 -0.037993878 -0.32776245 -0.5114219
-0.015918436 0.012785464 0.05462365 -1.3392113 0.07498053 1.0388666 0.031085983 -0.0428878
-0.58248854 -0.32902065 -0.2300883 -0.53691244 0.11747965 0.5831167 0.066261806 1.1561128
-0.07616305 -1.3798654 0.12006022 -0.2697949 0.11108275 -0.048117027 -2.267505 0.0077116787
0.020135924 -0.85275364 -0.057796687 -5.703552 0.081856355 -1.5341277 -0.072637126 0.08825114
-0.019405821 0.42402342 -0.44251674 0.09003962 0.057881664 0.42619118 0.5846304 -2.4191496
-0.08863962 1.4633268 -0.088008106 -0.03871684 -0.049551856 -0.4064039 0.412198 -0.04969214
0.330988 0.08519724 0.22546446 -0.92697275 0.060706496 -0.09652684 -0.66209733 0.15262352
-0.08968086 -0.04168597 1.0012916 0.33975315 -0.037299693 -0.1683071 0.061656564 -0.42043728
-0.028884254 -0.15102464 -0.037935726 -0.06948306 0.10846838 -1.5153322 0.03966716 -0.69214445
0.34745914 -0.048296306 -0.74227417 1.0155591 0.016712919 0.3154941 0.002166345 0.081127405
0.055203766 0.027028266 0.040162705 0.44082317 -0.0693811 -0.015810303 -1.7071692 0.027935266
0.034254506 1.7881801 0.11209422 -1.4474024 -1.4273149 0.4366872 0.111133605 -0.1228551
0.07219989 -1.5292956 -0.06777731 -0.0042187963 0.040254846 -0.6633011 0.1871376 0.7534142
1.254413 1.7586085 0.09261221 -0.44606 0.0560949 0.5911461 -0.44795096 0.5149676
-1.776383 -0.035952106 -0.2360205 -0.38751787 0.08212274 0.049286116 1.160043 -0.030815387
-0.05077236 0.09083731 0.1724742 1.5889157 -0.070741855 -0.49828282 -1.4125303 0.06866162
0.09419095 -0.5501574 0.14918816 0.115267135 0.08283569 -2.4217865 -0.1164186 0.3465826
-0.19131638 -0.29153708 -0.017955279 -0.09872737 -0.03810531 0.06584821 -0.02442002 0.1293629
-0.044448107 -3.3981905 0.27932316 0.6364807 0.113222644 0.15044005 -0.16741142 0.052398756
-0.13545114 -0.27337325 -0.07830158 0.35597816 -1.0927178 -0.9694219 0.114274666 -0.07444382
0.050959855 -0.5537609 -0.05307894 -0.11083887 -0.02124451 -3.2297742 -0.15719685 -0.5482839
0.07729456 0.76130885 -0.06698516 -0.4269322 0.090938225 -0.7575398 0.022817064 -6.318037
0.3397939 -0.025706675 0.5014271 -0.97478133 -0.02527091 -0.13342167 -0.26763314 0.14568965

fc2_1_2.bias f4 [32]
00000000: 12fc 213f 9ed0 643f dc1e bfbc cef3 d13f
00000010: 488c c63f 8a83 9d3f 0641 87be edca 74be
00000020: 5c8b a73f 35b9 a03f 89d8 b73f 3761 53be
00000030: ed50 b63f 4952 a73f 30e0 563f 3051 ca3f
00000040: 1704 db3f e2f7 b33f c73c cabf e647 b9be
00000050: ff78 c53f 0755 2b3e 4703 e33e 7711 a83e
00000060: 3ec8 b93f 9856 943f d0be 373f 8bb7 d73f
00000070: f45d 3a3f 012c c4bd fa01 52be 7ceb b03f
0.63275254 0.89380825 -0.023330145 1.6402528 1.551156 1.2305768 -0.26416796 -0.23905535
1.3089404 1.2556521 1.4362956 -0.20642553 1.4243447 1.3071986 0.8393583 1.5806026
1.7110623 1.4060023 -1.5799798 -0.36187667 1.542755 0.16731654 0.44338438 0.32825825
1.4514234 1.1588926 0.7177553 1.6852888 0.7279961 -0.095787056 -0.20508566 1.3821864

fc2_2.weight f4 [16, 32]
00000000: 2495 a03d 801e 883e 8fdf 00be ef76 5bbd
00000010: d663 8abe 934c d3bd d906 5f3e 718f f13c
00000020: d3d6 c03d eaa9 91be cba2 3f3d 46ba 7d3d
00000030: e9e4 c83c 4215 46bd d4de 62be 3ddf 083e
00000040: 8c7f 213d 0575 43bf 28d0 62bd 41b5 5dbe
00000050: d41e 4c3e 1511 06be 590f d83d 6d33 18bf
00000060: 3b40 c2be 9ea0 0fbe 74ad e93c 407a f3bc
00000070: ec0a 003e 39c1 883e b3c0 de3d c915 9bba
00000080: 96d7 85bf cffc 9c3e b7e3 76be 6dfd 593e
00000090: ee85 223f adcb 183d d14c 463e 8497 e3be
000000a0: ab16 fd3e 7248 9bbe 55a1 bfbe e17e 483e
000000b0: cd5c 5fbf 7e08 fa3c 00be ff3e 6f75 f13e
000000c0: 4968 97bf b885 f9be dca8 cebe 57a6 abbf
000000d0: 9c41 583d f022 cdbe 0ef0 943e fb30 313f
000000e0: d8b9 dabd c300 c4bf c7b9 ee3e 1089 cabd
000000f0: 3db2 dbbd 2d0c 73be 0298 24bf d577 163e
00000100: de7d 28bd 8ceb 1ebe d69d 31be de74 52be
00000110: 07db e9bd 5176 8cbc ce97 32be a337 47bb
00000120: 93cc 1d3e faf2 3abd e966 e8bd 2e32 cfbd
00000130: 93c3 6d3c 84b8 efbd 8461 14be a019 d63d
00000140: acf7 2fbd ec25 7c3c 9ada e3bd c051 91bd
00000150: fd7a 143e faea d7bd e298 0cbe 3f42 d33d
00000160: 250a aebd b3c5 13be f3a2 3ebe 41cc 043c
00000170: 3bfd e03c 6ba2 fe3d 2edb 7a3d 6382 2dbe
00000180: be23 bf3a 1b6e b9be c596 093f a4f3 193c
00000190: 42ca b4bd 5770 ccbe 46a5 a93e 8877 883d
000001a0: 505d a0be f14b 2e3e ec74 fdbd 5494 b2bf
000001b0: 3361 683e 4b87 ac3d 4dfa 8c3e 2f61 2c3f
000001c0: 08b9 e53b f722 aa3e cbf4 73be b24b 8c3e
000001d0: e02e 49be 99bb 393d aec9 343e 3693 18be
000001e0: a286 9b3e 274e 823e 5695 a7be 55f8 8e3e
000001f0: d9db 5cbf c6fe d73e 7607 f1be a954 8c3e
00000200: df05 74be 8540 503d 78b2 d0bc e519 633c
00000210: 0e67 903b 0cb7 88bd 5192 89bd d46c 1ebe
00000220: 5e55 c0bd f059 933d 5c12 1bbe d79a 17be
00000230: 4d1c b9bd a998 b4bd b0dd 95be 2771 b4bd
00000240: 9c99 68bd 096e 113e 4228 edbd 4cbc c6bc
00000250: 7b58 87be d92d 7dbd 2ff8 36bc 1ee6 46be
00000260: 71cf 4d3d 0fc1 53be 1cf9 81be 1c90 ff3b
00000270: 568f 0dbe bc31 29be c44a 3e3d 75a7 823d
00000280: 17f8 6dbe 80bc 06be 08b6 893f 26a5 e63e
00000290: 7f93 01be c13f 03bf 7f6e c83f 3e25 103e
000002a0: be31 a3be 3366 283f c0d7 f73d 9831 b9be
000002b0: 03c2 0f3f 1405 0dbf 4f92 b93d 4608 a1be
000002c0: d273 8b3f 4568 08c0 869d 183f 0a32 50bf
000002d0: 5a77 14bf c5f9 883e 803e d93e a306 643d
000002e0: 781f b4bf c760 f83e 2fa0 d3be 1194 1dbf
000002f0: 8c78 033e 1844 703f 87ab b8be 1c2c 49be
00000300: d5d4 233e 12f8 70c0 521a 343f 6dab 85bf
00000310: 3805 923e b8a6 563f d945 9c3e 6da3 cfbe
00000320: 2501 b53e b62b e43e 233e 8a3e 3344 50c0
00000330: 6f29 0f3f 42b1 80bd a6a1 cbbe 6687 1a40
00000340: f880 b1be fc5f a73d 5377 f4bf fc50 7e3e
00000350: a344 2fbf b883 8cc0 e691 82c0 144a c7bf
00000360: c80f b5be 20da 5f3d b588 05c0 7d74 483f
00000370: 4cda ffbf 2d6c 0e3e a1c8 79bf cc1a 2a3e
00000380: fbf3 13bf 3f08 7fbe 46b4 80bf adc4 7e3e
00000390: 9f55 793f f098 ce3e 3082 b6be 9afe 9cbe
000003a0: 03ec c03e 5cb3 64bf ba2a 2ebf 66b3 77be
000003b0: 9c37 48bf 0e55 75bf c089 bfbe 664d 1dbf
000003c0: f1f9 bebf 4bdf f1be 133e dcbd ed8d 72bf
000003d0: aa68 993e 3d9a d2c0 155b f5be a973 763d
000003e0: a5f1 353f 3605 88bd 328b c33e 2229 523e
000003f0: 45f6 d53e a0c2 54bf f316 22bf 6955 293f
0.07840946 0.2658577 -0.12585281 -0.05358022 -0.27029294 -0.1031734 0.21779956 0.029487344
0.094159745 -0.28449947 0.04678611 0.061945222 0.024523215 -0.048360117 -0.22155315 0.13366409
0.03942828 -0.7635043 -0.055374295 -0.21651174 0.19933635 -0.13092454 0.10549802 -0.5945347
-0.3793963 -0.14026114 0.028525092 -0.02972138 0.12504166 0.26709917 0.10876598 -0.0011832054
-1.0456417 0.30661628 -0.24110304 0.2128808 0.6348561 0.037303615 0.1936524 -0.44451535
0.49431357 -0.3032871 -0.37427774 0.1957965 -0.8725098 0.030521628 0.49949646 0.47159907
-1.18287 -0.48734832 -0.40363204 -1.3410138 0.052796945 -0.40065718 0.29089397 0.69215363
-0.10679978 -1.5312732 0.46626112 -0.09889424 -0.10727356 -0.23735113 -0.64294446 0.1469415
-0.04113566 -0.15519542 -0.17345366 -0.20552394 -0.11418729 -0.017146261 -0.17440721 -0.0030398152
0.1541007 -0.045641877 -0.113477536 -0.10116993 0.014511961 -0.117051154 -0.14490324 0.10454106
-0.042960808 0.015389901 -0.11125679 -0.07095671 0.14500041 -0.10542865 -0.13730195 0.1031537
-0.08498029 -0.14430885 -0.18616848 0.008105339 0.0274645 0.124333225 0.061244182 -0.1694427
0.0014582796 -0.36216816 0.5374568 0.009396467 -0.0882764 -0.39929458 0.33133906 0.06663424
-0.31321192 0.17021157 -0.12375817 -1.3951516 0.22693329 0.084242426 0.27534714 0.6733579
0.007010583 0.332298 -0.2382385 0.274015 -0.19646788 0.045344923 0.1765506 -0.14899907
0.30376154 0.2545025 -0.32731122 0.27923837 -0.8627296 0.42186564 -0.47076005 0.2740834
-0.23830365 0.05084278 -0.025475726 0.013861154 0.0044068163 -0.066755384 -0.06717361 -0.15471202
-0.093912825 0.071948886 -0.15143722 -0.1480516 -0.09038601 -0.0881818 -0.29270697 -0.088106446
-0.05678712 0.14202131 -0.11579944 -0.024259709 -0.26434693 -0.0618113 -0.01116757 -0.1942372
0.05024666 -0.20679115 -0.25385368 0.0077991616 -0.1382421 -0.16522878 0.04645802 0.06379596
-0.2323917 -0.13157845 1.0758677 0.45047873 -0.12653922 -0.51269156 1.5658721 0.14076707
-0.31873888 0.65780944 0.12101698 -0.3617065 0.56155413 -0.55085874 0.09061109 -0.31451625
1.089472 -2.131364 0.5961536 -0.81326354 -0.57994616 0.2675306 0.42430496 0.05567039
-1.4072104 0.48511335 -0.41333148 -0.61554056 0.12838954 0.938539 -0.36068365 -0.19645733
0.15999158 -3.765141 0.7035266 -1.044294 0.28519607 0.8384814 0.3052204 -0.4055437
0.35352436 0.445646 0.27000532 -3.2541625 0.559226 -0.06283809 -0.39771765 2.414514
-0.34668708 0.081726044 -1.9098915 0.2483558 -0.68464106 -4.391079 -4.08031 -1.5569482
-0.35363603 0.05465138 -2.086469 0.78302747 -1.9988494 0.13908453 -0.9757176 0.16611785
-0.5779416 -0.2490549 -1.0055015 0.24879713 0.9739627 0.40351057 -0.356462 -0.30662996
0.37680063 -0.8933618 -0.68033946 -0.24189529 -0.78209853 -0.9583291 -0.37409782 -0.61446226
-1.4920026 -0.47240672 -0.10754027 -0.9474781 0.29962665 -6.581328 -0.47921053 0.060168896
0.71071845 -0.06641619 0.38192135 0.20523503 0.4178945 -0.83109474 -0.6331627 0.6614595

fc2_2.bias f4 [16]
00000000: 3710 c93f bb1d ba3f adc3 22be cd2b 133f
00000010: f689 9dbe ee03 fc3e 41b3 cabe c55b 0940
00000020: af00 543f 56d9 ee3e 04ce 2cbf e29d e23e
00000030: 0e5e 243f ce96 d83e 78e1 373f 41a2 0a3e
1.5708073 1.4540323 -0.15894957 0.5748871 -0.30769318 0.49221748 -0.39589885 2.1462262
0.82813543 0.4665019 -0.67501855 0.4426108 0.64206016 0.42302555 0.71828413 0.13538457

fc3.weight f4 [4, 16]
00000000: 3a36 a4bd 8fef 333d 9374 9fbc 5757 bcbc
00000010: 85fc 9cbd b85b e3bc 6306 c3bc d9cf cf3c
00000020: 7fe6 063c e62b fe3d a35a 5b3e 055f 3c3e
00000030: f302 99bd e65a 80bd 5df9 a8bd 44a1 073e
00000040: d7ea aabe d398 593e 6e81 84bd 47b2 40be
00000050: 0544 f63d 6271 0f3d d839 c63e 3ffa 17be
00000060: 040c e8bd 0ee7 8e3d bf9d c4bd c547 77be
00000070: 5fe8 67be 5a2e f73d 3da3 abbd 51bf 3d3d
00000080: ac8f 5b3e 5b8c 503e e797 fdbd bf05 17be
00000090: ab51 833d ea95 23be fefe ecbe 2a48 8e3f
000000a0: 0aab 823f e204 e63e c9d9 f43e a2b2 8a3f
000000b0: 91fd 403e a943 46bf a75c f7be 64e7 423f
000000c0: d050 83bd a47b 9fbd e8a1 373e 404c ba3d
000000d0: f3a2 533d e748 46bd 38e9 1e3d e63c 793c
000000e0: dcd0 1bbc 50ad 7abc befb 29bb cf4f 05bd
000000f0: a537 8f3d 464b 303d 81f5 96bd 9888 5f3c
-0.080181554 0.043929633 -0.019464767 -0.022990866 -0.07665352 -0.027753696 -0.023806756 0.025367664
0.0082336655 0.12410717 0.21421294 0.18395622 -0.07471266 -0.062673375 -0.08250687 0.13245112
-0.33382294 0.21249704 -0.06469999 -0.18818007 0.120246924 0.03502024 0.38716006 -0.14841555
-0.11330417 0.06977664 -0.096004 -0.24148472 -0.22647236 0.12069388 -0.083807446 0.04632503
0.21441525 0.20366041 -0.12382489 -0.14748286 0.06412061 -0.15975156 -0.46288294 1.1115773
1.0208447 0.449256 0.47822407 1.0835764 0.18846728 -0.7744699 -0.48312876 0.76134324
-0.06411898 -0.077872545 0.17932856 0.09096575 0.051669072 -0.04840937 0.038796633 0.015212273
-0.009510245 -0.01530011 -0.0025937404 -0.032546815 0.06993035 0.043040536 -0.07371045 0.013643406

fc3.bias f4 [4]
00000000: f2f7 553e 1cdc 053f 7976 fd3e 28b9 36bc
0.20895365 0.52288985 0.4950445 -0.011152543
