PAPER_IMPORTANT/trained_model_theta0.001_loss10_epoch7500_1.1457103604362124.pth (torch, 43238 bytes, 14 tensors)

fc1.weight f4 [8, 3]
0	0x3f1db91e	0.6161059
1	0x40829e39	4.0818143
2	0xc0583593	-3.37827
3	0x40d99851	6.7998433
4	0xbe7aa1cb	-0.24475782
5	0xc095819d	-4.672072
6	0xbdb2654f	-0.08710729
7	0xbe5452f7	-0.20734774
8	0x3ef8949e	0.48550886
9	0xbd4e2252	-0.0503257
10	0xbea7104e	-0.32629627
11	0xbe1b1296	-0.15143809
12	0x3ff29c54	1.8953958
13	0x3da6173c	0.081099
14	0x40e23263	7.0686507
15	0x4001744f	2.022724
16	0x3e365153	0.1780446
17	0xbe339277	-0.1753634
18	0xbe69d5fc	-0.22835535
19	0xbdd1030e	-0.10205661
20	0xbef8da43	-0.4860402
21	0x3e6f54bc	0.23372167
22	0xbf0e51c8	-0.5559354
23	0xbeea7c7d	-0.45798102

fc1.bias f4 [8]
0	0x3ec7bd53	0.3901163
1	0x3f601a50	0.8754015
2	0xbeab5631	-0.33464196
3	0xbedf65c6	-0.43632334
4	0x3e8fb03e	0.2806415
5	0xbd1616f4	-0.036642984
6	0xbed716d0	-0.42009592
7	0xbeb19c48	-0.34689546

fc2.weight f4 [32, 8]
0	0xbe2f0a7a	-0.1709384
1	0xbf1d762f	-0.6150846
2	0x3e1f0da1	0.15532543
3	0xbe5731bd	-0.21015067
4	0x3d9ec762	0.07752873
5	0xbf995951	-1.1980382
6	0xbe53f0e9	-0.20697369
7	0x3e7d3885	0.24728592
8	0x3f7d2993	0.9889156
9	0x3e4887f4	0.19583112
10	0xbe3a2c69	-0.18181004
11	0x3e243bc3	0.16038422
12	0xbf310da9	-0.6916147
13	0xbec758c2	-0.38934904
14	0x3e9746ef	0.29546306
15	0xbe052c23	-0.13005118
16	0x3e13bd30	0.14427638
17	0xbf16537b	-0.5872113
18	0x3e3d0f21	0.18462802
19	0x3dacfbc7	0.0844646
20	0xbedb497f	-0.4282951
21	0xbf2e1d9c	-0.6801393
22	0x3e15056a	0.14552847
23	0x3e9a2530	0.30106497
24	0x3e407ecd	0.1879837
25	0x3e13fac8	0.14451134
26	0x3dfeb097	0.124360256
27	0xbe2715a7	-0.16316853
28	0xbeb0ce4a	-0.34532386
29	0xbe459ebd	-0.19298835
30	0xbe981d6b	-0.29709944
31	0x3e854d75	0.26035658
32	0xbfe800d8	-1.8125257
33	0x3ed91546	0.42399043
34	0xbd8e1e5e	-0.06939386
35	0x3e806638	0.25077987
36	0xbecbfc12	-0.39840752
37	0xbe59c465	-0.21266325
38	0x3e982a98	0.29719996
39	0xbea49cda	-0.32150918
40	0xbe86e8f5	-0.26349607
41	0xbe9784ae	-0.29593414
42	0x3d22e93f	0.039773222
43	0x3dfff20f	0.12497341
44	0xbe6b940e	-0.23005697
45	0x3bacb2ca	0.0052703368
46	0xbe6e4dbc	-0.23271841
47	0x3c765916	0.015035888
48	0xbfbb3a31	-1.4627134
49	0x3d7bd5df	0.06148326
50	0xbe803fd6	-0.25048703
51	0xbcef6eee	-0.0292277
52	0x3f7eaa4d	0.9947861
53	0xbf8e76c4	-1.1129994
54	0x3e9323c0	0.28738213
55	0xbd36fb59	-0.044673298
56	0x3e140198	0.14453733
57	0xbfb58ae8	-1.4183016
58	0xbda4a083	-0.08038428
59	0xbe87e0f5	-0.26538816
60	0xbf1d9f8d	-0.6157158
61	0x3f70c0fe	0.9404448
62	0xbdcc3160	-0.09970355
63	0xbe2b726a	-0.16742864
64	0xbf5238c4	-0.8211787
65	0xbc1c75e1	-0.009549589
66	0x3dec0306	0.11524014
67	0xbd8a0bdf	-0.067405455
68	0x3eefc30c	0.46828496
69	0xbf2879f3	-0.6581108
70	0xbe81f3be	-0.25381273
71	0x3eaa3a7a	0.3324774
72	0x3e30e96b	0.17276542
73	0x3f545131	0.8293639
74	0x3e8e45f1	0.27787736
75	0x3eb37291	0.35048345
76	0xc000054a	-2.0003228
77	0xc00b95c0	-2.181015
78	0xbd56ecf3	-0.052472066
79	0x3dfc32df	0.123143904
80	0xbf2e15b7	-0.68001884
81	0x3f067106	0.5251621
82	0x3e80aa15	0.25129762
83	0x3e9aefb1	0.30260995
84	0xbeea835a	-0.45803338
85	0xc05a3514	-3.4094896
86	0x3da1cd3b	0.07900473
87	0xbd5bf366	-0.05369892
88	0x3fdaef5c	1.7104297
89	0xbe909bb7	-0.282438
90	0xbe8b5993	-0.27216777
91	0x3e321c17	0.17393528
92	0xbf19457c	-0.5987165
93	0xbf132cd9	-0.5749031
94	0xbe5dfd44	-0.21678644
95	0x3ea40a36	0.3203904
96	0x3d675bf8	0.056484193
97	0xbe862fe5	-0.26208416
98	0x3e98211f	0.2971277
99	0x3e6805f9	0.22658528
100	0xbe077b30	-0.13230586
101	0x3c791e23	0.015204939
102	0xbdec0049	-0.11523492
103	0x3eb3ec5c	0.35141265
104	0x3e1dc249	0.15406145
105	0xbe57d6b6	-0.21078
106	0xbe0b49e1	-0.13602401
107	0xbdc3fca1	-0.095696695
108	0x3e2e6fae	0.1703479
109	0xbdc733d3	-0.097266816
110	0x3e3667f6	0.17813095
111	0x3de1bacc	0.11021957
112	0x3f7d5aaa	0.9896647
113	0x3ef21e03	0.47288522
114	0xbe0e9a52	-0.13926056
115	0x3c5cd36b	0.01347814
116	0xc0030434	-2.0471315
117	0xbd0a9b55	-0.033839542
118	0xbd8329d4	-0.064044625
119	0x3d525eaa	0.05135981
120	0xbf6e1321	-0.9299794
121	0xbfd3d6d3	-1.6549934
122	0x3ddfd5f2	0.10929479
123	0x3d89a6b6	0.06721251
124	0xbf5fea37	-0.8746676
125	0x40ae5d89	5.448918
126	0x3e99bb29	0.30025604
127	0x3e873f2e	0.2641539
128	0xbe45df9d	-0.19323583
129	0xbebdd082	-0.3707314
130	0x3b9abbc5	0.004722091
131	0x3cb7b0b9	0.022423135
132	0x3e2346b3	0.15944938
133	0x3c001b15	0.007818957
134	0x3e28c5cb	0.16481702
135	0xbe511f76	-0.20422158
136	0x3e3644a4	0.17799622
137	0xbe6fec8e	-0.23430082
138	0xbea48ae3	-0.32137212
139	0xbe710ce9	-0.23540081
140	0xbea85ea0	-0.32884693
141	0x3e9054c8	0.28189683
142	0x3eb46961	0.35236648
143	0x3eb3192b	0.3498014
144	0xbe3645f3	-0.17800121
145	0xbecea687	-0.40361425
146	0xbe987d8b	-0.29783282
147	0xbe3c5972	-0.18393496
148	0x3ebdac97	0.37045738
149	0xbfb7ce74	-1.435988
150	0xbc5b1bc6	-0.013373321
151	0x3e97211c	0.29517448
152	0x3ccf7f19	0.02532916
153	0xbdc5b4a6	-0.096535966
154	0xbe8297ba	-0.25506383
155	0x3e1b819a	0.15186158
156	0x3e2f530a	0.1712152
157	0xbd97107d	-0.07376192
158	0xbde9f77b	-0.11424156
159	0x3ea67826	0.3251354
160	0x3f988ac4	1.1917348
161	0xbee3bfda	-0.4448231
162	0xbcdeed16	-0.02721266
163	0xbe3366ce	-0.17519686
164	0xbe88709f	-0.26648423
165	0x3f9ccd43	1.2250141
166	0xbc7c90c8	-0.015415378
167	0x3e079bfb	0.13243096
168	0xbd9672fe	-0.07346152
169	0xbecf7c0e	-0.40524334
170	0x3e7526b0	0.2394054
171	0xbdb20e45	-0.08694128
172	0xbea00e4e	-0.31260914
173	0xbff0cfd7	-1.8813428
174	0x3e37106e	0.17877361
175	0xbe9a5583	-0.30143365
176	0x3e1adf50	0.1512425
177	0xbe9319ca	-0.28730613
178	0xbe396dc5	-0.1810828
179	0xbdf197c2	-0.11796524
180	0x3cf48062	0.029846374
181	0xbeb055d1	-0.34440473
182	0x3de4b1a2	0.11166693
183	0x3e773b23	0.24143653
184	0xbe991a84	-0.29903042
185	0xbcd4244f	-0.02589622
186	0xbe5ffe92	-0.21874455
187	0x3e8afbe5	0.27145305
188	0x3f1431bb	0.5788838
189	0xc06adade	-3.6696086
190	0xbe938e35	-0.28819433
191	0xbe72fd1c	-0.23729366
192	0x3e5a98e1	0.21347381
193	0xbd171dd0	-0.036893666
194	0x3e6aa663	0.22915034
195	0x3e86f493	0.2635847
196	0x3d7a95a8	0.06117788
197	0x3e115afb	0.14194863
198	0x3cf7e8f4	0.030262448
199	0x3ea0a6ac	0.3137716
200	0xbdb991a5	-0.090609826
201	0xbeca60df	-0.39527032
202	0x3ea6db26	0.32589072
203	0xbe63f2b7	-0.22260557
204	0xbe934d5a	-0.28769952
205	0xbfebeb33	-1.8431152
206	0x3d8e3c6b	0.069451176
207	0xbe960bd6	-0.29305905
208	0xbf48954f	-0.78352827
209	0xbf117d58	-0.56831884
210	0xbe9087cc	-0.28228605
211	0xbdcf285e	-0.10115121
212	0x3d5a40f5	0.053284604
213	0xc05d7f8e	-3.4609103
214	0xbd342006	-0.043975852
215	0x3e0a3578	0.13496959
216	0xbe4bbf04	-0.19897085
217	0xbdfd44e7	-0.12366658
218	0x3ead2afe	0.33821863
219	0xbe1d3307	-0.15351497
220	0xbdb59d97	-0.088679485
221	0xbf723db2	-0.9462539
222	0x3ea12000	0.31469727
223	0xbd64bddb	-0.055845123
224	0x3e2895e2	0.16463426
225	0x3e4a4220	0.19751787
226	0xbdb8a693	-0.090161465
227	0xbba02d1f	-0.0048881914
228	0xbe4bf2d8	-0.19916856
229	0xbe47eab1	-0.19523121
230	0xbea269a4	-0.31721222
231	0xbdfbcfd5	-0.122955
232	0x3f835bf1	1.0262433
233	0xbe4224f9	-0.18959416
234	0x3e027ab8	0.12742126
235	0x3e9e5781	0.30926135
236	0x3fb72ce8	1.4310579
237	0x3eef6ae9	0.46761253
238	0xbe9c46f9	-0.30522898
239	0x3e85bf5d	0.2612256
240	0xbe12f7c4	-0.14352328
241	0x3f906741	1.128151
242	0x3e64927d	0.22321506
243	0x3d1d48a6	0.03839936
244	0x3f4821d7	0.78176636
245	0xbf739ca6	-0.951609
246	0x3e155d4c	0.14586371
247	0x3e7e9148	0.24860108
248	0xbe1c2c3b	-0.15251248
249	0x3e7f040b	0.24903886
250	0x3e8569f4	0.26057398
251	0x3e0fc600	0.14040375
252	0xbe976101	-0.29566196
253	0x3c1e77fd	0.009672162
254	0xbc723089	-0.0147820795
255	0xbd6c0d4d	-0.057629872

fc2.bias f4 [32]
0	0x3f87bdbc	1.0604777
1	0x3c91136c	0.017709456
2	0x3f8be9cb	1.0930723
3	0xbeaaa14a	-0.3332618
4	0x3f4b7934	0.79481816
5	0xbe2f110c	-0.17096347
6	0x3efda3c6	0.49539012
7	0x3fc1a545	1.5128561
8	0x3f0cd8fe	0.55018604
9	0x3e5f627e	0.21814916
10	0x3df9e149	0.12201173
11	0x3c8c88c8	0.017155066
12	0xbddf1b5b	-0.108938895
13	0xbde34d0c	-0.1109868
14	0x3a942ee8	0.0011305483
15	0x3fb60392	1.421984
16	0xbc2fe1d7	-0.010734997
17	0xbda0b4dd	-0.07846997
18	0x3f39aee5	0.7253249
19	0xbe7a37f4	-0.24435407
20	0x3e876eb8	0.2645166
21	0x3f84a0cb	1.036157
22	0xbeacd67e	-0.33757395
23	0x3e1085b4	0.14113504
24	0xbe5e0dd4	-0.21684963
25	0x3f4afd92	0.7929317
26	0x3f6383e6	0.88873136
27	0x3ee292d4	0.44252646
28	0xbec4888c	-0.38385427
29	0xbebb1df8	-0.36546302
30	0xbf13f2dc	-0.5779245
31	0xbe97a584	-0.29618466

fc2_1.weight f4 [64, 32]
0	0xbe20ea11	-0.15714289
1	0x3c2b6b0c	0.010462534
2	0xbd166d1f	-0.03672516
3	0x3e26f1d9	0.16303195
4	0xbd035b75	-0.032069642
5	0xbdd2b347	-0.10288101
6	0x3e2e521f	0.17023514
7	0xbdad619a	-0.08465882
8	0xbdce7671	-0.10081185
9	0x3dca1ac2	0.09868385
10	0xbe3119ea	-0.17295042
11	0x3bd5fbbd	0.0065302537
12	0xbbf7f7a0	-0.007567361
13	0xbdce1a65	-0.10063628
14	0xbdef8e7f	-0.11697101
15	0xbda4b661	-0.080425985
16	0xbe1475e2	-0.14498094
17	0x3e2ad42e	0.16682503
18	0x3dae952b	0.08524545
19	0x3cfb1ba7	0.030652834
20	0x3d851226	0.06497602
21	0xbd3adcec	-0.045620844
22	0xbddae3f8	-0.10688013
23	0xbdbc218d	-0.09186087
24	0xbd02fa90	-0.031977236
25	0xbe1ff3e4	-0.1562038
26	0xbd49066f	-0.0490784
27	0x3d695fa6	0.056975983
28	0xbdc492cd	-0.095983125
29	0xbd695286	-0.056963466
30	0x3cf3683d	0.02971279
31	0xbd749b2a	-0.05971829
32	0xbdffc235	-0.12488214
33	0x3cf6a097	0.030105872
34	0x3d5083bc	0.05090688
35	0x3d309156	0.043107353
36	0x3e2d1a2d	0.16904517
37	0x3dcb63a4	0.09931114
38	0xbd9ae03a	-0.07562299
39	0x3c886122	0.016647879
40	0xbe2fb25c	-0.17157882
41	0xbd472753	-0.048621487
42	0xbdaf782c	-0.08567843
43	0xb9d85d16	-0.00041268085
44	0x3e235df8	0.15953815
45	0x3d466e0b	0.04844479
46	0xbc9bdaad	-0.019025171
47	0xbd646807	-0.05576327
48	0xbd5abf5d	-0.053405154
49	0xbd807af9	-0.06273455
50	0xbe1b6a64	-0.15177304
51	0x3d5fb4aa	0.054615654
52	0x3e12fa33	0.14353256
53	0x3db30ea9	0.087430306
54	0x3df043e2	0.117316976
55	0xbe1b2763	-0.15151744
56	0x3df02b85	0.11727051
57	0x3d214589	0.039372955
58	0xbdf74f78	-0.12075704
59	0xbd8416ff	-0.06449699
60	0xbd8f8988	-0.07008654
61	0xbddc7a1a	-0.107654765
62	0xbe142967	-0.14468919
63	0xbd27ef6e	-0.040999822
64	0x3d90d9d8	0.070728004
65	0xbe78f8a8	-0.24313605
66	0x3caa2a65	0.020772168
67	0xbe32ede4	-0.1747356
68	0x3cbd7038	0.0231248
69	0xbe247377	-0.16059671
70	0xbd92cacb	-0.07167586
71	0x3dae4526	0.08509283
72	0xbdf396d0	-0.118939996
73	0xbe394820	-0.1809392
74	0xbdab1423	-0.0835345
75	0xbd7b5916	-0.061364256
76	0xbd442e20	-0.04789555
77	0xbe2c4e86	-0.1682683
78	0xbdfcb91a	-0.12339993
79	0xbe3ffcc5	-0.18748768
80	0xbe2f5d75	-0.17125495
81	0x3d85827b	0.06519028
82	0xbd0ce03c	-0.034393534
83	0xbd4f2e4a	-0.050581254
84	0xbd67d47b	-0.05659912
85	0xbd93ebef	-0.07222735
86	0xbd0c5829	-0.034263764
87	0xbde682b5	-0.11255399
88	0xbe33d43f	-0.17561434
89	0xbd0c1c83	-0.03420688
90	0xbe371fa6	-0.17883167
91	0xbe6bd8a5	-0.23031862
92	0x3d9951fc	0.074863404
93	0x3d4b66f9	0.04965875
94	0xbe8f46a0	-0.2798357
95	0xbdef869f	-0.11695599
96	0x3ecb87b7	0.3975198
97	0xbf0aede6	-0.54269254
98	0x3cca4d62	0.024695102
99	0x3da101df	0.07861685
100	0x3f952669	1.1652347
101	0xbd9f47b3	-0.077773474
102	0xbe9dd89f	-0.3082933
103	0xbf281fdf	-0.6567363
104	0x3f483290	0.7820215
105	0x3f9b7623	1.2145427
106	0x3ea4564b	0.32097086
107	0xbee2d10f	-0.44300124
108	0xbe072ae8	-0.13199961
109	0xbcc2f180	-0.023796797
110	0x3f6f76d6	0.93540704
111	0xc072376e	-3.7846332
112	0xbdc268b9	-0.094926305
113	0xbd9996f6	-0.07499497
114	0x3f014e9d	0.5051058
115	0x3d735e8f	0.05941635
116	0xbf8c9ec6	-1.0985954
117	0x3f1b3953	0.60634345
118	0x3e0a2e8f	0.13494323
119	0x3f294b96	0.6613096
120	0xbe1d86c1	-0.15383436
121	0x3f249ec2	0.64304745
122	0x3f77bf87	0.9677662
123	0x3ed46689	0.41484478
124	0x3d84a511	0.064767964
125	0xbf666efe	-0.9001311
126	0xbf125e9b	-0.57175606
127	0xbd3d21f3	-0.046174955
128	0x3f0c9cc7	0.54926723
129	0xbeb4d4a3	-0.3531848
130	0x3f8458b3	1.0339569
131	0x3e1b5b8a	0.15171638
132	0x3d1b447e	0.037907116
133	0xbd96a584	-0.07355788
134	0xbf6826af	-0.90684026
135	0xbf32f8fe	-0.6991118
136	0x3f10faf5	0.5663293
137	0x3f62a76b	0.8853671
138	0xbfb5b509	-1.4195873
139	0xbf8dfbbd	-1.109245
140	0x3dab80e1	0.08374191
141	0x3d37414b	0.044740003
142	0xbdd85cc5	-0.105645694
143	0xbfbea451	-1.4893895
144	0xbde0d2da	-0.10977717
145	0xbdc5a865	-0.09651259
146	0xbde3b484	-0.11118415
147	0xbe1b5318	-0.15168417
148	0xbe8fde61	-0.2809935
149	0x3f9ce9b0	1.2258816
150	0xbe21e3a3	-0.15809493
151	0xbf9d10fe	-1.2270811
152	0xbe0613cb	-0.13093488
153	0xbdcee556	-0.10102336
154	0xbf2c2c44	-0.67255044
155	0x3e03b7bd	0.1286306
156	0x3d9a7802	0.07542421
157	0xbf504b3f	-0.81364816
158	0x3d7213a6	0.05910077
159	0xbc4dbc9f	-0.012557178
160	0xbddc0521	-0.10743166
161	0xbe0ad3b6	-0.13557324
162	0x3df240fa	0.118287995
163	0xbc2a8ef6	-0.010410061
164	0x3d0b18ae	0.033959083
165	0x3e0261ba	0.12732592
166	0xbe0e86af	-0.13918565
167	0x3d83cd61	0.06435657
168	0xbe0da15a	-0.13831082
169	0xbe15e107	-0.14636622
170	0x3dcfd09a	0.101472095
171	0xbe56b71b	-0.20968287
172	0x3de13b9e	0.10997699
173	0x3e0822fa	0.13294592
174	0x3da89bc3	0.08232834
175	0xbd89545e	-0.06705545
176	0xbe31ed7b	-0.17375748
177	0xbe204976	-0.15653023
178	0x3c974961	0.018467607
179	0xbe21728c	-0.15766352
180	0xbe390881	-0.1806965
181	0xbda8bc05	-0.08238987
182	0xbd8aacc5	-0.067712344
183	0xbe26ba2d	-0.16281958
184	0xbd3fbfc6	-0.04681375
185	0xbe13d153	-0.1443532
186	0xbe279920	-0.16367006
187	0xbe584e47	-0.2112361
188	0xbd896f61	-0.06710697
189	0xbda7f0e8	-0.08200246
190	0xbd79af84	-0.0609584
191	0x3dd4929b	0.10379525
192	0xbedcd730	-0.43132925
193	0x3f31c9aa	0.6944834
194	0x3e16cf44	0.14727503
195	0x3d39fa62	0.0454048
196	0xbe18d19d	-0.14923711
197	0x3e09fb74	0.13474828
198	0xbf1f1bc8	-0.62151766
199	0x3e6816e0	0.22664976
200	0xbe729f0e	-0.23693487
201	0x3fecb670	1.8493176
202	0x3ee3e658	0.44511676
203	0x3f5b8e51	0.8576403
204	0xbe1db0cf	-0.15399478
205	0xbe737ca6	-0.23778018
206	0x3f35141b	0.70733804
207	0xbfb74a47	-1.4319543
208	0xbd442bf2	-0.047893472
209	0xbdd431ee	-0.10361086
210	0x3e8587f8	0.26080298
211	0xbd9af8ec	-0.07567009
212	0x3e044c57	0.12919746
213	0xbbabef9e	-0.0052470705
214	0x3e12270c	0.14272708
215	0xbf4eb1f2	-0.80740273
216	0x3d31234a	0.043246545
217	0xbe77fea2	-0.24218228
218	0x3e8eba39	0.27876452
219	0x3e87386b	0.2641023
220	0x3e00f919	0.12595023
221	0x3e175b14	0.14780837
222	0xbee38f0c	-0.44445074
223	0xbe401edc	-0.18761772
224	0x3f8c11f1	1.0942975
225	0xbfb79478	-1.4342184
226	0x3d91bee9	0.07116491
227	0xbdbdd978	-0.092699945
228	0x3cbf950b	0.023386499
229	0xbe0375ef	-0.12837957
230	0x3fb6c0cc	1.4277587
231	0xbe0d8196	-0.13818964
232	0x3f9a1991	1.2039052
233	0xbfea9e49	-1.8329555
234	0x3e9c6cd4	0.3055178
235	0xbdbaf26a	-0.09128268
236	0xbe1cd0a1	-0.1531396
237	0xbcc54027	-0.024078442
238	0x3dc1b710	0.094587445
239	0xc02fe7a6	-2.7485137
240	0x3dc29b20	0.09502244
241	0x3d8b7b6c	0.0681065
242	0x3f927ec0	1.1444931
243	0x3daf394c	0.085558504
244	0xbf4cd3c3	-0.8001062
245	0x3f32dbb0	0.69866467
246	0x3e16c760	0.14724493
247	0xbd87d08d	-0.06631575
248	0xbdc54788	-0.09632784
249	0x3ef988ae	0.4873709
250	0x3f1aad0b	0.6042029
251	0x3ecfb931	0.40570977
252	0x3d484494	0.048893526
253	0xbf3bfe32	-0.73434746
254	0xbebb084f	-0.36529776
255	0x3d8186c5	0.063245334

fc2_1.bias f4 [64]
0	0xbdb841f7	-0.08996957
1	0xbe2ca1cc	-0.16858596
2	0x3d44470e	0.047919326
3	0x3eaa3205	0.33241287
4	0x3ec9a250	0.39381647
5	0x3d0b4ac8	0.034006864
6	0x3d832776	0.06404011
7	0x3e00e20d	0.12586232
8	0xbe55d068	-0.20880282
9	0xbdfb44ad	-0.12268958
10	0x3acd8058	0.0015678508
11	0xbca40e76	-0.020026427
12	0x3ea66b06	0.32503527
13	0xbd83896e	-0.06422697
14	0x3d41d5f2	0.047323175
15	0xbdfb1363	-0.12259557
16	0xbe51d3ba	-0.20490924
17	0xbe4bd60b	-0.1990587
18	0x3e3366f5	0.17519744
19	0xbd5fc8d4	-0.054634884
20	0xbe5b538b	-0.21418588
21	0xbd02a442	-0.03189493
22	0x3f021166	0.508078
23	0xbe0d39e3	-0.13791613
24	0xbedfd3c0	-0.4371624
25	0x3e491af0	0.19639182
26	0x3da0a48b	0.07843884
27	0xbe3b8614	-0.18312865
28	0x3f0af76c	0.54283786
29	0x3cfe35fc	0.031031601
30	0xbe49bc48	-0.1970073
31	0xbed43042	-0.41443068
32	0x3ee4da54	0.4469782
33	0xbd802f25	-0.06258992
34	0x3e7f0098	0.2490257
35	0x3e16fb1c	0.14744228
36	0x3f8b97ad	1.0905663
37	0xbe4b12e2	-0.19831422
38	0x3e680069	0.22656406
39	0xbe05e354	-0.13075
40	0x3cbc40ab	0.022980055
41	0xbe5ac310	-0.21363473
42	0x3d017baa	0.031612076
43	0xbcdf9a98	-0.027295396
44	0x3e98fa7e	0.2987861
45	0x3ee4eef7	0.44713566
46	0xbdc5f660	-0.09666133
47	0xbe1dcc3e	-0.15409943
48	0xbe1b5b26	-0.15171489
49	0xbe2580a4	-0.16162354
50	0x3d893ebe	0.0670142
51	0x3edd2a6a	0.43196422
52	0x3efec967	0.49763033
53	0xbdc0a926	-0.094072625
54	0xbe5ecf37	-0.21758734
55	0x3e90e788	0.28301644
56	0xbc316d6b	-0.01082931
57	0xbe7a2313	-0.24427442
58	0x3eb1b415	0.34707704
59	0xbd7ea076	-0.062164746
60	0x3c97716d	0.018486703
61	0xbcb9c7de	-0.022678312
62	0x3de7dc0e	0.11321269
63	0x3f0a4a2d	0.54019433

fc2_1_1.weight f4 [64, 64]
0	0x3bda3b20	0.0066598803
1	0x3d2f22c8	0.04275778
2	0xbddcb207	-0.107761435
3	0x3fcd86b5	1.6056734
4	0x3dc5976f	0.09648024
5	0x3c86c1ec	0.016449891
6	0xbdca5b45	-0.098806895
7	0x3f806ea0	1.003376
8	0xbda73db3	-0.08166065
9	0xbcd09e58	-0.02546613
10	0xbf1e1e76	-0.6176523
11	0xbcd95f1a	-0.026534606
12	0xc0dd4399	-6.9145017
13	0x3d687084	0.05674793
14	0xbec1fbb8	-0.3788736
15	0x3ce89820	0.028392851
16	0x3d3d9d8d	0.04629283
17	0xbc74e47b	-0.014947052
18	0xbd0b1764	-0.033957854
19	0xbc4c4e10	-0.012469783
20	0x3dbc0c04	0.09181979
21	0xbe860faf	-0.2618384
22	0xbdd0a391	-0.10187448
23	0x3f55a797	0.83458847
24	0xbd91e666	-0.07124023
25	0x3f7b1bed	0.98089486
26	0xbd54c252	-0.05194313
27	0xbd931877	-0.07182401
28	0xbf354240	-0.70804214
29	0x3d68ff3c	0.056884035
30	0x3df88fc0	0.12136793
31	0x3f623530	0.8836241
32	0x3e52a947	0.20572387
33	0xbd2386c2	-0.039923437
34	0x3f473829	0.7782007
35	0x3eb7fed2	0.359366
36	0xc08b2c96	-4.3491926
37	0x3d4d1838	0.050071925
38	0xbf0fc65f	-0.56162065
39	0xbd941ebd	-0.07232425
40	0x3dcf6e3c	0.101284474
41	0x3cced9f4	0.025250413
42	0xbd40cee4	-0.047072306
43	0x3f936376	1.1514728
44	0x3ee127fb	0.43975815
45	0x3e01a810	0.12661767
46	0xbd660d30	-0.05616492
47	0x3cd2cfd8	0.025733873
48	0xbf010730	-0.5040159
49	0x3cc5eee7	0.02416177
50	0xbc531b90	-0.012884989
51	0x3efa924b	0.48939738
52	0xbeae8dc8	-0.34092546
53	0x3daea8fa	0.085283235
54	0x3e8d3ac0	0.27583885
55	0xbf348f8f	-0.70531553
56	0x3c44a8f3	0.012003171
57	0x3d365b1f	0.044520494
58	0x3ea3f76e	0.3202471
59	0x3ddcca2a	0.10780747
60	0xbdaa4dcc	-0.0831562
61	0x3d297a54	0.041376427
62	0x3fa0c233	1.2559265
63	0xbec37234	-0.38173068
64	0x3d80ddf4	0.06292334
65	0x3bb21020	0.005434051
66	0x3e13c559	0.14430751
67	0x3f7ba2a3	0.9829504
68	0x3f81966c	1.012403
69	0xbdcffa43	-0.101551555
70	0x3f36b995	0.71376926
71	0x3f6fd848	0.93689394
72	0x3d58318c	0.052781627
73	0xbd98554e	-0.074381456
74	0x3f5f03ee	0.8711537
75	0x3ca129d0	0.019673258
76	0xbe370fa6	-0.17877063
77	0x3b774d00	0.0037735105
78	0x3fef551c	1.8697848
79	0x3d19e1d0	0.037568867
80	0x3d5bd91b	0.053673845
81	0xbdc8c852	-0.09803833
82	0xbf50d97a	-0.8158184
83	0x3d3019e1	0.04299343
84	0x3d80b65a	0.06284781
85	0x3f8a7b47	1.0818871
86	0x3ef90f60	0.48644543
87	0xbc2b456b	-0.010453562
88	0xbee5e36e	-0.44900078
89	0xc0574b1e	-3.3639598
90	0x3d50bcb5	0.050961215
91	0x3dca0b68	0.09865457
92	0x3eb0a1e3	0.3449851
93	0xbd199498	-0.037495226
94	0xbd37456c	-0.04474394
95	0x3e0910b3	0.13385276
96	0x3ed3ae0e	0.4134373
97	0x3c0a7a10	0.0084519535
98	0xc02c02c5	-2.687669
99	0x3e54e613	0.20790891
100	0xbfa508ac	-1.2893271
101	0xbae3bb96	-0.001737463
102	0xbfd86dca	-1.6908505
103	0x3d54de80	0.051970005
104	0xbda7d006	-0.08193974
105	0x3d41d95c	0.04732643
106	0xbda5cf76	-0.08096211
107	0x402ee6a5	2.7328274
108	0xbfe889e7	-1.8167084
109	0xbf4c75ac	-0.79867053
110	0x3d68f7c8	0.056876928
111	0x3d8fc953	0.070208214
112	0x3f0e0eb9	0.55491215
113	0x3d6210e4	0.05519189
114	0xbd1f64dd	-0.03891455
115	0x3f6dbbf1	0.928649
116	0xbfa341b5	-1.2754427
117	0x3aa15b00	0.0012310445
118	0xbf6de9e4	-0.92935014
119	0x3f35bfa3	0.7099554
120	0xbd8a98db	-0.06767436
121	0x40171539	2.3606703
122	0x3f6c4d74	0.92305684
123	0x3dbe047c	0.09278199
124	0x3d40b7a8	0.04705015
125	0x3d13a030	0.03604144
126	0x3db4db40	0.08830881
127	0xbf2d06b1	-0.67588335
128	0x3cb06198	0.021530911
129	0xbde5c58e	-0.11219321
130	0x3db53b14	0.08849159
131	0xc01f3c00	-2.488037
132	0xbe1d127e	-0.15339085
133	0x3d6b3696	0.057425104
134	0xbf0b65e7	-0.54452366
135	0x3f16af2f	0.5886106
136	0x3d3f9830	0.046775997
137	0xbdbe401c	-0.09289572
138	0xbeaadd26	-0.33371848
139	0xbdec4d39	-0.115381666
140	0x3f8f1d6e	1.1180856
141	0x3de60940	0.11232233
142	0xc0429010	-3.0400429
143	0x3da4d432	0.080482855
144	0x3d0aac9c	0.03385602
145	0xbd92c5f7	-0.07166665
146	0x3f88188d	1.0632492
147	0xbe24b305	-0.16083916
148	0x3dcbc2b5	0.09949247
149	0x3f6732af	0.9031171
150	0xbcbf605a	-0.023361374
151	0x3fd98700	1.6994324
152	0x3e31f424	0.17378289
153	0xbfcd7d8b	-1.6053938
154	0x3d2bc322	0.04193414
155	0xbdfc2a44	-0.12312749
156	0xbfd5c20e	-1.6699846
157	0xbd89cd81	-0.0672865
158	0x3c7fd260	0.015614122
159	0x3fffd019	1.9985381
160	0x3e90d253	0.28285465
161	0xbd0dd854	-0.034630135
162	0x3f8a9816	1.0827663
163	0x3f24385a	0.64148486
164	0xbdee5228	-0.11636764
165	0x3d5580b8	0.05212471
166	0xbeb16458	-0.3464687
167	0xbcc61300	-0.024178982
168	0x3c59b73b	0.013288314
169	0x3bc3b48a	0.0059724497
170	0x3ca56418	0.02018933
171	0x3f94e458	1.1632185
172	0xbf99c59e	-1.2013433
173	0xbfc5f773	-1.546614
174	0x3d7f10f0	0.062272012
175	0xbd814e54	-0.06313768
176	0xbf054c4b	-0.5206954
177	0xbcc7ed74	-0.024405219
178	0x3c7bedcf	0.015376522
179	0xbf8fcc50	-1.1234226
180	0xbf71881d	-0.9434832
181	0xbd39c758	-0.045356125
182	0x3f2b0659	0.6680656
183	0x3edb22e0	0.42800045
184	0xbdb43643	-0.08799412
185	0x3fd97bb8	1.6990881
186	0xbdb18eb5	-0.08669797
187	0xbdb9c9a6	-0.090716645
188	0x3d5baec4	0.053633466
189	0x3d432070	0.047638357
190	0x3f51b749	0.81920296
191	0xbea95372	-0.33071476
192	0xbd5ec7a8	-0.054389626
193	0xbc838470	-0.016054362
194	0xbd8af1e4	-0.06784418
195	0x3c5b5de8	0.013389088
196	0x3ced60a8	0.028976753
197	0x3dae46dc	0.08509609
198	0xbdb3e644	-0.08784154
199	0xbe0935be	-0.13399407
200	0x3d09eaf4	0.033671334
201	0x3ca069c0	0.019581676
202	0xbd9780d3	-0.07397618
203	0x3c6f6ee0	0.014613837
204	0xbd96e8aa	-0.07368596
205	0x3dd4200e	0.103576764
206	0x3da19517	0.07889765
207	0x3d5dcc48	0.054149896
208	0x3d87e6cc	0.06635818
209	0x3d9a9b36	0.075491354
210	0x3dbfc8e4	0.09364489
211	0xbdf74d00	-0.120752335
212	0xbd0b2ca0	-0.033978105
213	0x38e1c7ca	0.0001076605
214	0x3d22ee0d	0.039777804
215	0xbd4b2106	-0.04959204
216	0xbe022dbd	-0.1271276
217	0x3b7052ab	0.0036670368
218	0xbdb20770	-0.08692825
219	0xbdb68c66	-0.089134976
220	0xbdc966f7	-0.09834092
221	0x3c841f18	0.016128108
222	0x3c9e8e40	0.01935494
223	0x3d859d96	0.06524198
224	0xbdd64852	-0.10463013
225	0x3d4eabb4	0.050456718
226	0x3c434a53	0.011919576
227	0xbd353405	-0.044239063
228	0xbd589328	-0.052874714
229	0xbcaa6708	-0.020801082
230	0xbe0feb14	-0.14054519
231	0xb9823e00	-0.00024841726
232	0xbdbd220a	-0.09235008
233	0xbcc63ec0	-0.024199843
234	0x3d9d9490	0.07694352
235	0x3d513624	0.051077023
236	0xbe2ae043	-0.16687112
237	0xbca24b36	-0.019811254
238	0xbd0fa240	-0.035066843
239	0x3db183b8	0.086677015
240	0x3dc15f56	0.09442012
241	0xbdf73d2a	-0.12072213
242	0x3d3d135c	0.04616104
243	0xbe176df1	-0.14788033
244	0xbd16570e	-0.036704116
245	0xbdd6987c	-0.10478303
246	0x3c976ee0	0.018485487
247	0xbe1fb88f	-0.15597747
248	0x3d0a99dc	0.033838138
249	0xbd893a54	-0.06700578
250	0xbc37efd2	-0.011226611
251	0xbce2b3b0	-0.027673572
252	0x3dfbc4a6	0.12293367
253	0xbd43cdf8	-0.04780385
254	0xbc97da5e	-0.018536743
255	0xbe0586ed	-0.13039751

fc2_1_1.bias f4 [64]
0	0x3d0026de	0.031287067
1	0x3edeafa3	0.43493375
2	0x3e6c355a	0.23067227
3	0xbe2bba00	-0.16770172
4	0x3d8504af	0.06495034
5	0xbe208e70	-0.15679336
6	0xbe3599a1	-0.17734386
7	0xbe1ec61a	-0.15505257
8	0xbd0c4e3e	-0.034254305
9	0xbe0ebd9b	-0.13939516
10	0xbd8190d3	-0.06326451
11	0xbd8b9822	-0.068161264
12	0xbf82ecfd	-1.0228573
13	0x3f8683c1	1.0508958
14	0xbd8a3dcb	-0.06750067
15	0x3e6c7382	0.23090938
16	0xbdf4a10d	-0.119447805
17	0xbebd0a15	-0.36921754
18	0x3e8b1ac4	0.27168858
19	0xbd6d4b89	-0.057933364
20	0x3f8b82a8	1.0899248
21	0xbe5ea7f8	-0.21743762
22	0x3e9ad01d	0.30236903
23	0x3c27a411	0.010231988
24	0x3e1b35ea	0.15157285
25	0x3f2a1bb8	0.66448545
26	0xbf0ef9a2	-0.5584966
27	0x3ca70715	0.02038912
28	0xbff1fdde	-1.8905599
29	0xbdeadf90	-0.114684224
30	0xbe888ba3	-0.26669034
31	0xbdc51d61	-0.09624744
32	0xbe1555a0	-0.14583445
33	0xbe0dc248	-0.13843644
34	0xbfa3c4bb	-1.2794412
35	0xbe5b9eb0	-0.21447253
36	0x3f30a836	0.6900667
37	0xbf1a5a7e	-0.6029433
38	0xbe28ad1f	-0.1647229
39	0x3d52f7fd	0.05150603
40	0x3f663b8a	0.899346
41	0x3f2c043e	0.67193973
42	0x3d8a7df8	0.06762308
43	0xbe19b19a	-0.15009156
44	0x3f64f80a	0.8944098
45	0xbca88dba	-0.020575393
46	0xbe1a08a1	-0.15042354
47	0xbe28082a	-0.16409364
48	0xbb19a6d4	-0.0023445385
49	0xbeb89e8a	-0.36058456
50	0x3d213620	0.03935826
51	0x3f3f0085	0.7461017
52	0xbdfa81e4	-0.12231806
53	0xbe040ebb	-0.12896244
54	0xc01e0110	-2.4688148
55	0xbfe4d4fc	-1.7877498
56	0x3e4bc52f	0.19899438
57	0xbde2617a	-0.110537484
58	0xbf806a67	-1.0032471
59	0xbe664057	-0.22485481
60	0xbe288084	-0.16455275
61	0xbce29509	-0.027658956
62	0x3c3acfa3	0.0114020435
63	0xbe185e75	-0.14879782

fc2_1_2.weight f4 [32, 64]
0	0xbf1fce57	-0.62424225
1	0x3f18eb41	0.5973397
2	0xbe968be5	-0.29403606
3	0x3de50012	0.11181654
4	0xbf00dd82	-0.50337994
5	0xc03a5129	-2.9112036
6	0x3da4f3f1	0.08054341
7	0x3c655e47	0.013999528
8	0xbd093e88	-0.0335069
9	0xbe07bd00	-0.13255692
10	0xbd588560	-0.05286157
11	0x3d995492	0.07486834
12	0xbf007544	-0.50178933
13	0xc04f698a	-3.2408166
14	0xbcca7dec	-0.024718247
15	0xbe640ab5	-0.2226971
16	0xb90f4000	-0.00013661385
17	0x3e2a8ace	0.16654512
18	0x3e51b987	0.2048093
19	0x3d3b7613	0.0457669
20	0xbeb5ccb3	-0.35507736
21	0x3efa7996	0.48920888
22	0xbe5f19ba	-0.21787158
23	0x3f0f3e08	0.5595403
24	0x3eb0118c	0.34388387
25	0xbd7f5474	-0.0623364
26	0xbf959a8a	-1.1687787
27	0xbda1b694	-0.07896152
28	0x40113273	2.2687042
29	0x3ae69c55	0.0017594198
30	0xc192faf0	-18.372528
31	0x3e1142b4	0.14185601
32	0xbd835518	-0.06412715
33	0x3d980fce	0.074248895
34	0x3d69e6d5	0.057104904
35	0xbe099d49	-0.13438906
36	0x3feeab50	1.864603
37	0x3c963cbf	0.018339513
38	0xbda48291	-0.08032716
39	0x3e0d3dfd	0.13793178
40	0xbea67afe	-0.3251571
41	0xbf30f341	-0.69121176
42	0xbe150256	-0.14551672
43	0xbbd7a1fb	-0.006580589
44	0x3f3816f3	0.7191002
45	0xbec71d3f	-0.388895
46	0xbd17a013	-0.037017893
47	0x3cc41942	0.023937825
48	0xbce83cd7	-0.028349323
49	0xc0293ccc	-2.6443357
50	0xbf15c7b7	-0.58507866
51	0x3e8f8371	0.2802997
52	0xbd6782c0	-0.056521177
53	0xba93bf7b	-0.0011272276
54	0xbf82563d	-1.0182568
55	0xc036fdd2	-2.859242
56	0xbe9ea625	-0.30986133
57	0x3d665bd8	0.056239933
58	0x3e9c1f97	0.3049285
59	0xbbfc48d1	-0.00769911
60	0x3d7f9166	0.062394522
61	0x3e0e1c4b	0.1387798
62	0xbefaeedf	-0.4901037
63	0x3f1728b9	0.5904651
64	0x3e3e2552	0.18568924
65	0xc02ad31e	-2.6691356
66	0xbfc6d17c	-1.553268
67	0x3d93f79f	0.07224964
68	0xbfa904cf	-1.3204592
69	0xbe29cd55	-0.16582234
70	0x3d9c934c	0.07645282
71	0xbcecbc24	-0.028898306
72	0x3ceca458	0.028886959
73	0x3db197b6	0.08671515
74	0x3df22a32	0.11824454
75	0x3c92de80	0.017928362
76	0x3ef6a699	0.4817398
77	0xbfa5b84f	-1.2946872
78	0x3d1f7c00	0.038936615
79	0xbed48711	-0.41509297
80	0x3da8ae48	0.082363665
81	0xbf78a408	-0.9712529
82	0xbe902c07	-0.2815859
83	0xbdac3d97	-0.08410185
84	0xc0b2f4c9	-5.592381
85	0xbf0b2eef	-0.5436849
86	0xbf130ef1	-0.57444674
87	0x3f478c63	0.7794859
88	0xbd8e595c	-0.06950638
89	0x3ece06e4	0.40239632
90	0xc0e0dd12	-7.026986
91	0x3d478e67	0.04871979
92	0xbdbdfa76	-0.09276287
93	0x3d405a8e	0.04696136
94	0xbfcc534a	-1.5962918
95	0x3dde6456	0.10858981
96	0xbca97748	-0.02068676
97	0x3dc58600	0.09644699
98	0xc0066cae	-2.1003833
99	0xbe008f75	-0.12554725
100	0xbee758b7	-0.45184872
101	0xbf8172d6	-1.011317
102	0xbd2b1e04	-0.041776672
103	0xbdd105ed	-0.102062084
104	0x3ffa50ee	1.9555948
105	0xc0c0df9e	-6.027297
106	0xbddc4b9d	-0.107566096
107	0xbe0a4203	-0.13501744
108	0x3fe28374	1.7696366
109	0xc02eea40	-2.7330475
110	0xba087f20	-0.00052069314
111	0x3e167325	0.14692362
112	0x3c89fbc8	0.016843691
113	0xc0634a29	-3.5514014
114	0x4064b681	3.5736392
115	0x3d920dfd	0.07131574
116	0x3c9dd948	0.019268647
117	0xbe0762fe	-0.13221356
118	0x3f6d791a	0.9276291
119	0xbe482e58	-0.19548929
120	0xc05d3cca	-3.4568353
121	0x3dd56e24	0.10421398
122	0x3eab48e8	0.3345406
123	0x3e199bb6	0.15000805
124	0xbc81c838	-0.015842542
125	0xbd60c43e	-0.05487465
126	0xbef933d5	-0.48672357
127	0xc07405c3	-3.8128517
128	0xbebb7090	-0.36609316
129	0xbea57ef6	-0.32323426
130	0x3f177327	0.59160084
131	0x3cc14fd8	0.023597643
132	0xbf283e91	-0.6572047
133	0x4059c7f7	3.40283
134	0x3ddcd8e0	0.10783553
135	0xbafe9181	-0.0019422026
136	0xbd5e1f27	-0.054228928
137	0x3cd62fc0	0.026145816
138	0xbd2cd079	-0.042191003
139	0xbd877654	-0.06614366
140	0xbf1b949c	-0.60773635
141	0x400b0370	2.1720848
142	0x3d14a20d	0.036287356
143	0xbfc4b9de	-1.5369222
144	0xbe03fbd2	-0.1288903
145	0xbf927817	-1.1442899
146	0xbfb6bbcb	-1.427606
147	0x3e108423	0.14112906
148	0x3e0e835a	0.13917294
149	0xc1169808	-9.412117
150	0xbf426427	-0.7593407
151	0x3ff28b90	1.8948841
152	0x3f638e02	0.8888856
153	0xc08db69f	-4.4285426
154	0xbe8f139d	-0.2794465
155	0x3dff3133	0.12460556
156	0xbf5c6ea2	-0.8610631
157	0xbcf15fef	-0.02946469
158	0xbfb2aee9	-1.3959628
159	0xbd9660bd	-0.0734267
160	0xbcf1b6ee	-0.029506173
161	0xbe14b968	-0.14523852
162	0xc0708933	-3.758374
163	0x3cc996bf	0.024608014
164	0x3f0e7249	0.55643135
165	0x3e94a43a	0.29031545
166	0x3db98785	0.090590514
167	0x3dbd4ca7	0.09243136
168	0x3f44a2d2	0.76810944
169	0xbd8f9151	-0.07010139
170	0xbd54b162	-0.051926978
171	0x3cf7a55c	0.030230217
172	0xbd93dc26	-0.07219724
173	0x3f1ab885	0.60437804
174	0xbd19cfed	-0.03755181
175	0x3e022cc9	0.12712397
176	0x3d1380ac	0.036011383
177	0x3efb018f	0.49024627
178	0x3f94d824	1.1628461
179	0xbf48c386	-0.78423345
180	0xbcf8171a	-0.030284453
181	0xbd318d82	-0.043347843
182	0x40588410	3.3830605
183	0xbf286f7a	-0.657951
184	0xbf0700c9	-0.52735573
185	0x3d1d5708	0.038413078
186	0x3e17d36d	0.14826746
187	0xbe7794e5	-0.24177893
188	0xbd63e6ea	-0.05564014
189	0x3c636e8d	0.013881338
190	0xbf7e07e3	-0.99230784
191	0x3f6bf42c	0.9216945
192	0xc0035ec4	-2.052659
193	0x3f1c1c32	0.6098052
194	0x3ebcb0c8	0.36853623
195	0x3c6c7f40	0.014434636
196	0xbf1478f4	-0.5799706
197	0xc0450a1d	-3.0787423
198	0xbd80ad4b	-0.06283053
199	0xbc62c5f9	-0.013841146
200	0xbdba081a	-0.090835765
201	0x3cf2d5f5	0.029643038
202	0xbdea6d88	-0.11446673
203	0x3de52580	0.11188793
204	0xc00bebbc	-2.186263
205	0xbcae1048	-0.021247998
206	0x3d3df8f5	0.046380002
207	0x3ecb15a1	0.3966494
208	0x3d8fdb0c	0.07024202
209	0x3e15759b	0.14595644
210	0xbe09eeb4	-0.13469964
211	0x3d25103c	0.040298685
212	0x3f44b00a	0.76831114
213	0xc10c486e	-8.767683
214	0x3cf6e2d3	0.030137455
215	0xc017b382	-2.3703313
216	0x3e58c8a0	0.21170282
217	0x3e7b92fa	0.24567786
218	0xbe4cb6b0	-0.19991565
219	0xbc0b8b1e	-0.008517055
220	0x3efe9dfc	0.49729908
221	0x3d13fca6	0.036129616
222	0xbea46c72	-0.32113987
223	0xbdcca0d1	-0.09991611
224	0xbd8bce1b	-0.06826421
225	0x3debad58	0.11507672
226	0xc03a3cfb	-2.909972
227	0x3d8b17ed	0.06791673
228	0x3f78c8c1	0.97181326
229	0x3eb5fe3a	0.35545522
230	0xbd9f6005	-0.07781986
231	0xbdbba46c	-0.0916222
232	0x3ef8117d	0.48450842
233	0x3f657483	0.8963091
234	0x3cf1ec2b	0.029531559
235	0xbd1070a9	-0.03526369
236	0x3f1600c0	0.58594894
237	0xbde00a90	-0.10939515
238	0xbdb397e2	-0.08769204
239	0xbc997760	-0.01873368
240	0x3da735b7	0.08164542
241	0x3e808bf4	0.25106776
242	0x3eb28e85	0.3487436
243	0x3e93da3d	0.2887744
244	0xbdbef04e	-0.09323178
245	0x3df1a4b8	0.11798996
246	0xbeef19a0	-0.46699238
247	0xbf186389	-0.5952688
248	0xbf6231f6	-0.88357484
249	0xbc6428f0	-0.013925776
250	0xbf15f5e3	-0.5857832
251	0xbe0f1fde	-0.13977
252	0xbbe82205	-0.0070841336
253	0xbd8394c8	-0.06424862
254	0xbf48417b	-0.78224915
255	0xbed9ae00	-0.42515564

fc2_1_2.bias f4 [32]
0	0x400d512f	2.20808
1	0x3f075e96	0.528787
2	0x3dadca63	0.08485868
3	0x4065b322	3.5890584
4	0x3fcba846	1.5910728
5	0x3fb37c57	1.402232
6	0xbf93e66a	-1.1554692
7	0x3fbde941	1.4836808
8	0x4018b06b	2.3857677
9	0xbfd7f558	-1.6871748
10	0x40148374	2.3205233
11	0xbe043e7f	-0.12914465
12	0x3f0401ba	0.51565135
13	0xbff8a0e1	-1.9424096
14	0xbf9a113b	-1.2036508
15	0x3def1e26	0.11675672
16	0x403adbb5	2.9196599
17	0x4058799d	3.3824227
18	0x3fc45b36	1.5340335
19	0x3fcf57ae	1.6198633
20	0x3f9021f6	1.1260364
21	0x3fb5bec0	1.4198837
22	0x403d379a	2.9565187
23	0x3ec21ec2	0.3791409
24	0xbef32bea	-0.4749444
25	0x3fccd2c3	1.6001819
26	0x401d024a	2.4532647
27	0xbec32a56	-0.38118237
28	0x3f66ff26	0.90233076
29	0x4086214b	4.191564
30	0x3fbcde50	1.4755344
31	0x405a5219	3.4112608

fc2_2.weight f4 [16, 32]
0	0x3f118971	0.56850344
1	0x3d920486	0.07129769
2	0xbd9a6c7b	-0.07540222
3	0xbf2d0b5d	-0.67595464
4	0xbec0e539	-0.37674883
5	0xbf3ae860	-0.73010826
6	0x3ddf5421	0.10904718
7	0xc0ebe79c	-7.3720226
8	0x3fb62d0a	1.4232495
9	0x3f94842a	1.1602833
10	0x3f456b28	0.7711663
11	0x3f4a9cb6	0.7914537
12	0x3ba57cc4	0.0050502736
13	0xbe14309e	-0.14471671
14	0xbeeec524	-0.4663478
15	0x3e86a370	0.26296568
16	0xbd7e4026	-0.062072895
17	0x3f92a738	1.1457281
18	0x3fe0a605	1.7550665
19	0xbe8c43e1	-0.27395537
20	0xbf599694	-0.8499539
21	0xc005cd7d	-2.090667
22	0x3f2c0f88	0.672112
23	0xbe85723c	-0.26063716
24	0xc0017ef2	-2.0233731
25	0x3ec3399f	0.381299
26	0xbed2540d	-0.4107975
27	0xbf9546a0	-1.1662178
28	0xbf055bbc	-0.520931
29	0xc0c0c0ee	-6.023551
30	0xbeabe7dc	-0.33575332
31	0x3d2d8419	0.042362306
32	0x3f3fcb02	0.7491914
33	0xbeca927a	-0.39564878
34	0xbfd84aab	-1.6897787
35	0x3faa328f	1.3296679
36	0xbf25a2cb	-0.6470153
37	0xbed58eb2	-0.4171043
38	0xbfc85908	-1.565217
39	0x3f45f8c3	0.77332705
40	0xbf526def	-0.82198995
41	0xc18f51c6	-17.914928
42	0x3dc87dbf	0.09789609
43	0xbf201dae	-0.6254529
44	0x3fbc74e5	1.4723173
45	0x3fd89ca9	1.6922809
46	0xbee3d771	-0.44500306
47	0xbfc8cbdb	-1.5687212
48	0xbef15930	-0.47138357
49	0x3f62ef93	0.8864681
50	0xbe913ed5	-0.2836825
51	0xbfcfc077	-1.6230611
52	0xbec399cf	-0.38203284
53	0x3fba1aa2	1.4539378
54	0x3ed07ea2	0.40721613
55	0xbf180a8d	-0.593911
56	0xbfe6bb93	-1.8025993
57	0xbfda7fc7	-1.7070245
58	0xbf4ef427	-0.80841297
59	0x3ffed4f8	1.9908743
60	0xbfafbfdd	-1.3730427
61	0xbdd6f9c4	-0.10496858
62	0xbefb0106	-0.49024218
63	0xbe9d41c1	-0.3071423
64	0x3f9d1400	1.2271729
65	0x3e145ab0	0.1448772
66	0xbf48d162	-0.7844449
67	0x3dd8df12	0.10589422
68	0xbe52a8ce	-0.20572206
69	0xbf6652ee	-0.8997029
70	0xbe8ce9b7	-0.2752206
71	0xbe4bbc4c	-0.19896048
72	0x3df5a28d	0.11993895
73	0xbf0a5d07	-0.540482
74	0xbe265c05	-0.1624604
75	0xbf1d8a6b	-0.61539334
76	0xbe41acd9	-0.18913592
77	0x3f25fa61	0.6483517
78	0x3e06b409	0.13154615
79	0x3e0159f1	0.12631966
80	0x3f0367e5	0.51330405
81	0x3f8c729f	1.097248
82	0x3d8b8063	0.06811597
83	0x3ececd31	0.40390924
84	0xbf8b9e37	-1.0907658
85	0x3e73a3db	0.23792975
86	0xbdc5612d	-0.096376754
87	0xbde34c87	-0.11098581
88	0xbf911ce6	-1.1336944
89	0x3eeb1389	0.45913342
90	0x3f32c57b	0.6983258
91	0xbe6ad846	-0.22934064
92	0xbf0e90a5	-0.5568946
93	0xbfba35bd	-1.454765
94	0xbf692766	-0.9107574
95	0xbf02693a	-0.50941813
96	0x3dde7114	0.10861412
97	0xbe652bd5	-0.22380002
98	0x3d9aa64e	0.07551251
99	0x3e74dd68	0.23912585
100	0xbef3f57c	-0.47648227
101	0xbfa45b56	-1.2840374
102	0x3bdc1f25	0.00671758
103	0xc0780f02	-3.875916
104	0x3edf97f8	0.4367063
105	0xbf0ec7c1	-0.5577355
106	0xbe93f3bd	-0.28896895
107	0xbdd804c6	-0.105477855
108	0x3f20d702	0.62828076
109	0x3f086f87	0.5329518
110	0xbebff1c9	-0.37489155
111	0xbceaac52	-0.028646622
112	0x3e533638	0.20626152
113	0x3e54c7b5	0.20779307
114	0xbee2ccfd	-0.4429702
115	0x3e917253	0.28407535
116	0xbcf343a5	-0.029695341
117	0xbed78614	-0.4209448
118	0xbe4ceeac	-0.20012921
119	0xbe8e08c0	-0.2774105
120	0xbe21fe20	-0.15819597
121	0xbe5f7752	-0.21822861
122	0x3e4e7d9a	0.201651
123	0xc1b1a4a8	-22.205399
124	0xbe7729de	-0.24137065
125	0xbd21c614	-0.039495543
126	0x3cd02749	0.025409358
127	0xbeaa249b	-0.33231053
128	0xbd9d4b4c	-0.07680377
129	0x3de3068a	0.110852316
130	0xbdb022e6	-0.08600406
131	0x3f227045	0.6345256
132	0xbe89f274	-0.2694279
133	0xbeeb0a7f	-0.45906445
134	0xbe3aa593	-0.18227224
135	0x3f2a84dd	0.66608983
136	0xbf791deb	-0.97311276
137	0xbf266004	-0.6499026
138	0xbec86633	-0.39140472
139	0xbf895ddf	-1.0731772
140	0x3e9518c7	0.29120466
141	0xbe9ff99c	-0.31245124
142	0xbe786853	-0.24258547
143	0x3e2a1ddb	0.16612951
144	0x3ee6725e	0.4500913
145	0xbd97e3da	-0.07416506
146	0xbd481ac2	-0.048853643
147	0x3e5ad877	0.21371637
148	0xbe09394b	-0.13400762
149	0xbe0e65b1	-0.1390598
150	0x3f378633	0.71689147
151	0xbf3dc867	-0.74133915
152	0xbe723061	-0.23651268
153	0xbe7c7aa1	-0.24656154
154	0xbe28d338	-0.16486824
155	0x3f111c18	0.5668349
156	0x3dcfa3bf	0.10138654
157	0xbc90d749	-0.017680781
158	0xbe939d62	-0.2883101
159	0xbee7eafb	-0.45296463
160	0x3c692de2	0.014232131
161	0x3e2e3d0d	0.17015477
162	0xbe10e27a	-0.14148894
163	0x3db5a4ad	0.088693
164	0x3e83a06d	0.25708333
165	0xbe8b9da8	-0.2726872
166	0xbef75f0a	-0.48314697
167	0xbf821ad2	-1.0164435
168	0x3fa31fbd	1.2744061
169	0x3bcd1028	0.0062580295
170	0xbca37708	-0.01995422
171	0x3c666622	0.014062436
172	0xbde140da	-0.109986976
173	0x3e8a00b7	0.2695367
174	0x3e96be96	0.2944228
175	0x3da42e27	0.08016615
176	0x3e38144f	0.17976497
177	0x3e3ac067	0.18237458
178	0xbe4b62eb	-0.19861953
179	0x3ddc7479	0.10764403
180	0xbe66bfb3	-0.22534065
181	0xbeac2afd	-0.33626547
182	0x3e052acf	0.13004611
183	0xbefba6c1	-0.4915066
184	0xbe87a281	-0.26491168
185	0x3db2fb2e	0.08739315
186	0x3ede9cc1	0.4347897
187	0xbed14059	-0.40869406
188	0xbcd61ba9	-0.026136236
189	0xbe7e0d52	-0.24809769
190	0xbe9093c9	-0.2823775
191	0xbd8f074e	-0.06983815
192	0xbefe5424	-0.4967357
193	0xbe047c51	-0.12938048
194	0x3eee1d08	0.46506524
195	0x3f4275a5	0.7596076
196	0x3d20acd2	0.039227314
197	0x3e0c2ca4	0.13688904
198	0x3f2a907d	0.6662672
199	0x3e044eb7	0.12920652
200	0xbe1a7347	-0.15083037
201	0xbf08625b	-0.5327508
202	0xbde74ee6	-0.112943456
203	0xbe7d78c9	-0.24753107
204	0xbe7c0845	-0.2461253
205	0xbf93c61f	-1.1544837
206	0xbf893a01	-1.0720826
207	0x3e5284f6	0.20558533
208	0x3efe5fda	0.49682504
209	0x3beca97b	0.007222352
210	0xbdb9c924	-0.09071568
211	0xbdcfb881	-0.10142613
212	0x3e9a3918	0.30121684
213	0xbe788942	-0.2427111
214	0x3f2cca06	0.67495763
215	0xbe76f71d	-0.24117704
216	0xbe0a3489	-0.13496603
217	0xbe76930e	-0.24079534
218	0xbf3127c5	-0.6920131
219	0x3f90c380	1.1309662
220	0x3e050b9e	0.12992713
221	0x3de84856	0.11341922
222	0xbed5020e	-0.4160313
223	0x3f21a10b	0.6313636
224	0xbf369dd1	-0.7133456
225	0x3e5eea8a	0.21769157
226	0xbfaf85ee	-1.3712747
227	0xbf835f5a	-1.0263474
228	0xc1352b52	-11.323076
229	0xc14fbce2	-12.983614
230	0xbe54a935	-0.20767672
231	0xc0f234d3	-7.5689483
232	0x3b990edc	0.004670961
233	0x3fa66e60	1.3002434
234	0x3f716c40	0.943058
235	0x3d60fffa	0.05493162
236	0xbf82ec5c	-1.0228381
237	0xbf042def	-0.5163259
238	0xbe9f28cc	-0.31085813
239	0xbe87dd8a	-0.26536208
240	0x3f2c2878	0.6724925
241	0x3eda5571	0.42643312
242	0x3f906997	1.1282223
243	0xbf75e7bb	-0.9605672
244	0x3f726e51	0.9469958
245	0x3f363680	0.7117691
246	0x3ec1348f	0.37735412
247	0xbe558e72	-0.2085512
248	0xbf0d7384	-0.5525439
249	0x3f6c5c00	0.9232788
250	0xbf20cd52	-0.62813294
251	0xc0100269	-2.250147
252	0x3c23bca1	0.009993703
253	0xbcda004f	-0.026611475
254	0xbf68dbad	-0.909602
255	0xbdfb0e8a	-0.122586325

fc2_2.bias f4 [16]
0	0x3fbc6114	1.4717126
1	0xbd9e4623	-0.07728221
2	0x3f14c321	0.58110243
3	0xbc250845	-0.010072772
4	0x3fc39c94	1.5282159
5	0xbec31932	-0.3810516
6	0xbf898cc0	-1.0746078
7	0xbef3e2b9	-0.47633913
8	0x3d90f8ad	0.07078681
9	0xbeb055b5	-0.3444039
10	0xbe514ab9	-0.2043866
11	0x3f4e4c1a	0.8058487
12	0x3f91a665	1.1378905
13	0x3f7ca227	0.98684925
14	0x400a51d7	2.161245
15	0xbf86f276	-1.0542743

fc3.weight f4 [4, 16]
0	0x3b8063ed	0.003918162
1	0x3e4fd25e	0.20295092
2	0x3c2668bd	0.0101568075
3	0x3de0ad71	0.10970581
4	0x3bc14841	0.005898506
5	0xbced7a69	-0.028989034
6	0x3d0e6a9c	0.03476964
7	0x3cadba62	0.021207038
8	0x3d385d08	0.045010597
9	0x3abcc86a	0.001440299
10	0x3d9d6a9c	0.0768635
11	0xbd69a4a2	-0.05704177
12	0xbc7aa97f	-0.0152992
13	0xbd0b2415	-0.033969957
14	0x3d196480	0.03744936
15	0x3d8c2bbc	0.06844279
16	0xbac24141	-0.0014820473
17	0xbe258c66	-0.16166839
18	0xbc4714f5	-0.012150993
19	0x3e3fbb9f	0.18723916
20	0xbce82a89	-0.028340595
21	0x3ca5b6b8	0.020228729
22	0x3de69393	0.11258616
23	0xbd3c014b	-0.04589967
24	0xbdbd8aef	-0.09255015
25	0xbc2547e0	-0.010087937
26	0x3e5d3a83	0.21604352
27	0xbe580432	-0.2109535
28	0xbd787576	-0.060658894
29	0x3d9fc56c	0.07801327
30	0xbdd2200f	-0.10260021
31	0x3e0bca98	0.13651502
32	0x3e7ef806	0.24899301
33	0x3ec68ea2	0.38780695
34	0xbe8c9f28	-0.27465177
35	0xbc8d1767	-0.017223073
36	0x3eaab5fc	0.33341968
37	0x3d0183fd	0.031620014
38	0xbe80cb26	-0.2515499
39	0x3e8265d2	0.25468308
40	0x3e99bcfb	0.30026993
41	0x3ef70412	0.48245293
42	0x3c92dcc8	0.017927542
43	0xbea156b5	-0.31511465
44	0x3ea4fdd0	0.32224894
45	0xbe84b172	-0.2591663
46	0xbe025b8d	-0.12730236
47	0x3e8ffc8c	0.28122365
48	0x3c576208	0.013145931
49	0x3be75c78	0.0070605837
50	0x3ba15a7d	0.004924117
51	0x3cb0abef	0.02156636
52	0xbce6f35f	-0.02819222
53	0x3d54e13d	0.051972616
54	0xbd1ce348	-0.03830269
55	0xbca19afd	-0.019727224
56	0x3ca6c739	0.020358669
57	0xbc0a7173	-0.0084499
58	0xbca58d92	-0.020209108
59	0xbc8d03ac	-0.017213665
60	0x3b96f394	0.0046066735
61	0x3d8f0b26	0.06984548
62	0x3d33d63f	0.043905493
63	0xbb6cd800	-0.0036139488

fc3.bias f4 [4]
0	0xbd9c4025	-0.07629422
1	0x3e90d5a6	0.28288
2	0x3f5b7c0a	0.85736144
3	0xbd83cd49	-0.064356394
